training/checkpoints/fold_2/best-checkpoint.ckpt (torch, 357010 bytes, 26 tensors)

conv1.0.weight f4 [64, 60, 3]
00000000: 5aca 243c 055f 94bd e001 413d cec8 d6bc
00000010: 7da1 383d cefa 333d 7b34 453d 94d0 0a3c
00000020: 046f 643c 932e 833d 3b16 7ebd df48 27bd
00000030: dff1 513c c4d6 1a3c 7d02 48bd 48c2 503c
00000040: 8e64 06bd b70f 7cbd 4aec 10bd 97b5 8ebd
00000050: 44ef fabc 1913 c0bc b29e b6bd 6b3b e2bc
00000060: b461 b73d 9caa 9ebd c3a9 13bb 94e6 20bd
00000070: 24a6 b6bd e869 5e3c 05d7 57bd 63ae 4e3c
00000080: 4977 8ebd 9b08 073d 990e b7bd 30c4 4ebc
00000090: f2ee 363d 5c08 d3bc e6d2 63bd 556c 0fbd
000000a0: 8850 0b3d 4fcd ddbc b970 623d 4e7d 7abc
000000b0: dc59 6cbd 0e8e fb3c 49c0 c33c 3e55 083d
000000c0: 7ce6 6f3d 21e3 17bc 5869 c43c 7570 12bd
000000d0: efd7 943d e617 193d d0cb a43d 8bd9 41bd
000000e0: 832e 59bb 87bf 5d3c 7fcd 6ebd 0e4f f03c
000000f0: 64c8 883d e0b3 c93c c592 08bd aa93 3fbd
00000100: 0ad3 493d 420d 09bc 0bb4 773c 1050 40bd
00000110: 677e 23bd 86c5 11bb 8f1e c93c 3f25 99bd
00000120: a2ba c2bc 5fa0 3cbd 5828 b63c 5405 ea3c
00000130: 7a18 19bc aaab 763d 9fcf 75bd ea26 473b
00000140: 33fa 1abd aa94 633c f6f2 343d 327e 7dbd
00000150: 5655 04bd 27c7 32bd 770b 6d3b 5db9 5cbd
00000160: 852f 09bc 57af e83c 8a1a 943b a30f b7bd
00000170: d407 4cbd 3b21 723d 1f47 413c 34c1 56bd
00000180: 6054 46bd e9f4 54bd e4cf 4bbd 8038 7abd
00000190: f14d 373c a5e8 95bc b587 f2bc 1613 08bd
000001a0: dd4f 113d 3ec9 18bc 0b05 40bd 8d03 7fbd
000001b0: 36ad 523d 1d04 703c ea2f ea3c 0970 843c
000001c0: 104a c8bc ab87 90bc 167b 3abd f26f 443d
000001d0: bbcd 46bd 7435 81bd 2c5a 37bc 2d44 5c3d
000001e0: 61c3 703c 07ed 86bc 2f1d bbb9 bf8d 84bd
000001f0: 46d8 70bc 2790 423d 8a54 0ebc d885 c6bc
00000200: d911 80bc 384b 243d 019a 643d 7a5f b7bc
00000210: 40e0 033d 7d0b bcbc 54cb a8bd 98b5 a43d
00000220: 6ccc acbc 4f07 14bd 9243 0c3d 3d09 8bbc
00000230: 5813 53bd bcdf 51bd de6a d93b 8a61 883c
00000240: 9f4a 0d3d d3f7 ae3c 76f7 4c3d abec 60bd
00000250: 90c8 a83c 0ab0 4b3c e850 123d ccbf 8e3b
00000260: da04 13bb 852c 7c3d 3281 6cbc f1f4 4d3d
00000270: 2b0b 4dbc 060d 0dbd 1303 403d f1ad 613d
00000280: e4e9 debc a39e 30bd 199e bebc 7372 88bd
00000290: e121 dabc 3bd4 923d 8b93 0d3c 01b2 3fbd
000002a0: 139a 8dbd 74a7 2bbd f5fc 40bd 44be 50bd
000002b0: 4a36 823d 35d3 3ebc 64c4 38bd e656 d0bc
000002c0: 756e 38bd 69f5 163c e8cf 55bd ed31 243d
000002d0: 9167 77bd 0ea9 103c d996 43bd 7b1a 8c3c
000002e0: d2fe 9dbd 58dc 5abc 79e0 203d 8e9d 023d
000002f0: 1f03 30bc 2145 d43b 4af5 dcbc 0eee b33d
00000300: f646 6e3d 8fb9 32bc 1e3b df3c 5d6c 513d
00000310: 28c0 80bd 39d0 3c3d 73df 3bbd 7649 243d
00000320: 252c 353c ff7c 17bc a5f9 7a3d b5a1 f4bc
00000330: 675a 773c 4a1a 113d bab5 c33c c443 283c
00000340: 03b8 11bd bad5 f5bc 6ba1 873c 71a1 c43c
00000350: 8628 9f3d d036 4ebd 639b 8f3c cbf0 4f3d
00000360: bac5 063d b9bd 21bd c799 0cbd bed2 a0bd
00000370: d230 433d bdc8 923d a7b6 2b3c 6014 7e3d
00000380: 5f1c 46bd 6e74 5d3d e705 2a3d ae5a 803d
00000390: 4347 e93c 8004 863d e40a 1f3c 2842 ce3c
000003a0: e60c 27bd cee1 2a3d 206e b5bc d482 22bd
000003b0: e8b5 273d e7a8 7dbb ff49 60bd 6b6d 78bd
000003c0: 857e f73c dbb9 2a3d 24e0 fcbc 6a79 633c
000003d0: 1dae 3abd 3368 d1bc a577 7bbd 8f3a 80bd
000003e0: 830c 49bd 70d2 763c 6c9b f5bc bf3e f03b
000003f0: 9929 3bbd e955 623d de01 913d d222 2fbd
0.01005801 -0.07244686 0.04712093 -0.026218798 0.045075882 0.043940358 0.048145752 0.00847258
0.013942484 0.06405368 -0.06203292 -0.04084098 0.012814014 0.009450618 -0.048830498 0.012741633
-0.03281074 -0.061538424 -0.035381593 -0.06968229 -0.030631669 -0.023446606 -0.089169875 -0.027616223
0.08954182 -0.07747385 -0.0022531606 -0.039282396 -0.089184076 0.013575055 -0.052695293 0.012614819
-0.069563456 0.03296719 -0.08938331 -0.012620017 0.04466147 -0.025760822 -0.05562105 -0.035015423
0.034012347 -0.027075438 0.055283282 -0.015288664 -0.057702884 0.030707385 0.0238954 0.03328442
0.058569416 -0.00927046 0.023976013 -0.03575178 0.072677486 0.037376307 0.08046687 -0.047326606
-0.0033139295 0.013534433 -0.058301445 0.029334571 0.066788465 0.024621904 -0.033343095 -0.046771683
0.04927353 -0.008364977 0.015118609 -0.046951354 -0.03991547 -0.0022242977 0.024550704 -0.07477807
-0.023770634 -0.04605138 0.022236034 0.028566994 -0.009344215 0.060222305 -0.060012456 0.0030388185
-0.037836265 0.013890425 0.044177018 -0.061887927 -0.032307945 -0.043646958 0.0036170164 -0.053887714
-0.008373146 0.028403921 0.0045197653 -0.08938529 -0.049812153 0.059113722 0.011796742 -0.052430347
-0.04842031 -0.051991377 -0.049758807 -0.06108904 0.011188016 -0.01829941 -0.029605726 -0.033221327
0.035476554 -0.009325324 -0.04687981 -0.062259246 0.051434718 0.014649418 0.0285873 0.016166704
-0.024449378 -0.017642817 -0.04552754 0.047958322 -0.048536044 -0.063090235 -0.011190932 0.053775955
0.014695019 -0.016470445 -0.00035689163 -0.064723484 -0.014700001 0.047500756 -0.008687148 -0.024233744
-0.01563351 0.040110797 0.055810932 -0.022384394 0.032196283 -0.022954697 -0.08241907 0.08042449
-0.02109357 -0.036139783 0.034244128 -0.016972179 -0.05153212 -0.05123876 0.006635054 0.016648073
0.034494992 0.021358406 0.050040685 -0.054913204 0.020603448 0.012432108 0.03572169 0.00435636
-0.0022433312 0.061565895 -0.014435099 0.050282422 -0.01251487 -0.03443625 0.04687793 0.055097524
-0.027211137 -0.043120038 -0.023268746 -0.066624545 -0.026627483 0.07169386 0.008641134 -0.046800617
-0.06914153 -0.041907743 -0.04711624 -0.0509627 0.06358011 -0.011647035 -0.045109168 -0.025432061
-0.045027215 0.009213784 -0.052200228 0.040086675 -0.060401503 0.008829368 -0.04775128 0.01710247
-0.07714619 -0.013358198 0.039276574 0.031888537 -0.010742932 0.0064779674 -0.026972432 0.0878564
0.058173142 -0.010908498 0.027249869 0.051128734 -0.06286651 0.046097014 -0.045867395 0.04010912
0.011057888 -0.00924611 0.061273236 -0.029862264 0.015097237 0.03542546 0.023890365 0.010270063
-0.035575878 -0.03000914 0.016556462 0.024002763 0.07771401 -0.050345242 0.017530149 0.050766747
0.03290341 -0.039487574 -0.03432634 -0.07852696 0.04765398 0.07167194 0.010480559 0.06203115
-0.0483669 0.054066114 0.041509535 0.06267296 0.028476363 0.06543827 0.009707186 0.02517803
-0.040783785 0.04171925 -0.022147238 -0.03967555 0.040944964 -0.003870541 -0.05475807 -0.060651224
0.030211696 0.04168115 -0.030868597 0.013883928 -0.045576204 -0.025562381 -0.0613934 -0.06261169
-0.049084198 0.015064821 -0.029981337 0.0073316987 -0.045693967 0.05525771 0.07080434 -0.042757817

conv1.0.bias f4 [64]
00000000: 2bf1 3539 5014 a93b 3d57 0b3a d135 eeb7
00000010: 49e3 b136 1dc5 3238 c1ec 64b9 52c1 3538
00000020: d833 28bb f14d fab7 8c66 9038 48b0 543b
00000030: 1e23 3eb8 2b58 373b 8d35 233b d504 11bb
00000040: 5e92 483b 473a 7739 e4b0 1b3c 4c84 bb3b
00000050: e393 e4b8 1402 5cb9 ac9c bc3b 4d8a 2bbc
00000060: 7031 25b7 c0f1 d7bb 96c6 f5b6 0a63 1eb7
00000070: 8f80 d038 5ca2 66b9 b76b 7338 e7ed 5a3a
00000080: 5f6c 08b9 debe 85b8 7d7a 4eba 6261 46b9
00000090: 0ff5 53b9 8001 3132 e820 823a bcdd 4fb9
000000a0: 43e5 3b38 236f 6939 9a77 2139 ff30 53ba
000000b0: 42be 2e39 a6dc 58ba 3af3 39b9 786b 1b38
000000c0: 9ba0 52b9 e0f2 bb36 8614 8ab7 2dd2 81b6
000000d0: 2b6b fa37 dfa4 42ba 0fdc 3b3a 00ac 5cb8
000000e0: 1722 edba de22 16bc 7445 15bc beb9 5a39
000000f0: b798 5639 ff24 e13b 3c6d 0238 a038 1139
0.00017351347 0.005159892 0.0005315429 -2.8396871e-05 5.3014705e-06 4.2622083e-05 -0.00021831972 4.3333806e-05
-0.0025665667 -2.9838617e-05 6.885556e-05 0.0032453705 -4.5332235e-05 0.0027976136 0.0024903745 -0.0022128124
0.003060482 0.00023577466 0.009502623 0.005722558 -0.00010899433 -0.00020981609 0.0057559814 -0.010469985
-9.846277e-06 -0.006590098 -7.3246874e-06 -9.440593e-06 9.942159e-05 -0.00021994993 5.8036032e-05 0.000835149
-0.00013010342 -6.377486e-05 -0.00078765285 -0.0001891903 -0.0002021382 1.0303097e-08 0.000992802 -0.00019823661
4.479779e-05 0.00022262013 0.00015398712 -0.0008056312 0.0001666481 -0.0008272625 -0.00017733584 3.7054968e-05
-0.00020086991 5.6013087e-06 -1.6460439e-05 -3.8689673e-06 2.9852226e-05 -0.00074250804 0.0007166275 -5.2612275e-05
-0.0018091825 -0.009163586 -0.009110797 0.00020859294 0.00020465521 0.0068708654 3.1096148e-05 0.00013849372

conv1.1.weight f4 [64]
00000000: 9909 813f fa8c 843f d828 823f cbde 823f
00000010: fd48 813f 165f 823f 9cf9 853f f219 883f
00000020: 5a67 833f e237 813f 6459 843f 0096 823f
00000030: d32c 823f f9d4 803f 20de 833f 92d8 823f
00000040: 0dee 823f a265 833f b0b8 823f 6592 813f
00000050: 51f5 813f 7a9e 843f 9d85 813f 3c73 893f
00000060: 86b2 813f c19a 823f 72a6 833f a7ff 863f
00000070: 2394 833f 2670 813f 603e 843f 137a 833f
00000080: 1c41 813f 3a86 853f e547 833f de17 803f
00000090: 584f 803f 2b62 813f 52db 823f 0a69 873f
000000a0: 1edc 823f bf2f 853f 8453 843f 3c45 863f
000000b0: 40e8 843f c68c 833f 0ce6 843f 42b7 823f
000000c0: 1b58 813f 02af 843f 3857 843f 686a 823f
000000d0: 01d1 833f 3987 833f be7d 803f 1ce2 853f
000000e0: a68f 823f c565 823f b5fa 843f f384 843f
000000f0: edcf 7c3f d706 833f 6826 813f 159a 823f
1.0081054 1.0355523 1.0168715 1.0224241 1.0100399 1.0185268 1.04668 1.0632918
1.0265915 1.0095179 1.033978 1.0202026 1.0169929 1.0064994 1.0302162 1.0222342
1.0228897 1.0265391 1.0212612 1.0122801 1.015299 1.0360863 1.01189 1.0738292
1.0132606 1.0203477 1.028517 1.0546769 1.0279583 1.011235 1.0331535 1.0271629
1.0097995 1.0431588 1.0256315 1.0007284 1.0024214 1.0108083 1.0223181 1.057893
1.0223424 1.0405196 1.0337987 1.0489879 1.0383377 1.0277336 1.0382705 1.0212176
1.0105013 1.0365908 1.0339117 1.0188723 1.0298158 1.0275642 1.0038373 1.0459628
1.0200088 1.0187308 1.038901 1.0353073 0.9875477 1.0236462 1.0089846 1.0203272

conv1.1.bias f4 [64]
00000000: 7f6f 24bd 8422 04bd 077a 29bd bd55 4ebd
00000010: bf32 41bd e820 42bd a218 2e3d 64c8 043c
00000020: 1288 43bd 1d0d 25bd 07b9 8b3d 7b00 2fbd
00000030: 7ef2 44bd 4754 043d 3b0e 8bbc 3fbc 37bd
00000040: 36dd 33bd bc57 15bd 5526 edbc b69d 33bd
00000050: 126a 30bd eda7 ce3c 8df8 8d3d 0aef 7d3d
00000060: 5c08 e8bb 2872 29bd 9dbf 3abd 45cb 843d
00000070: f31c 26bd 88f3 8bbc 040b 48bd ed00 10bd
00000080: 94ef 15bd fc44 9dbb 8ddc 34bd 3d89 fcbc
00000090: 1c6c fdbc 1711 0cbd 969f 3cbd 2a09 7d3d
000000a0: 8b96 6b3d 3ea6 9c3d 8edc 50bd b7a3 31bd
000000b0: 6d56 56bd 657b 3abd 658e 3cbd f70d 01bd
000000c0: 518c cdbc 7e5e 46bd 8e1e 43bd 5c29 82bc
000000d0: e065 b5bc c815 963d 956c dcbc ccdf 2c3c
000000e0: edbe 1ebd e9be 1bbd fff3 49bd 51eb e7bc
000000f0: 1e8e fcbc cfb9 36bd a507 50bd 5a00 413d
-0.040145393 -0.03225948 -0.04137614 -0.050374735 -0.047167536 -0.047394663 0.04250396 0.0081044175
-0.04773719 -0.04029571 0.068224005 -0.042725068 -0.04808282 0.032306936 -0.016974559 -0.04485726
-0.043912135 -0.036460623 -0.028948942 -0.043851577 -0.043069907 0.025226558 0.06932173 0.061995544
-0.0070810746 -0.041368634 -0.045592893 0.06484083 -0.040554952 -0.017083898 -0.04883863 -0.035157133
-0.036605433 -0.0047994833 -0.044155646 -0.030827159 -0.03093534 -0.034195986 -0.04605063 0.061776318
0.057516616 0.07648896 -0.050991587 -0.04336902 -0.052328516 -0.045527834 -0.046034236 -0.03150746
-0.025091322 -0.04842996 -0.04763656 -0.015888862 -0.022143304 0.07328373 -0.026907245 0.010551404
-0.0387563 -0.038023863 -0.04930496 -0.02831045 -0.030829486 -0.044610795 -0.05078854 0.047119476

conv1.1.running_mean f4 [64]
00000000: beeb 763d f578 733d 1e71 8a3d a26f 093e
00000010: 9023 e83d 9fb5 a03d c321 813e f876 8cbe
00000020: 7c74 263e 28d0 a9bc c9c5 0abe 4e73 9b3d
00000030: b0b0 50bc 94f4 493e 11dd 12be b306 cc3d
00000040: 28f3 373d cb2b 5c3e bd50 7b3d 5cff b43c
00000050: 0184 0c3d 64db 1cbd 84b3 c0be c076 edbe
00000060: d161 653e 8ffd 283e e863 193b 4da6 1a3d
00000070: 5915 403d 3c04 ea3e b296 5a3d 5c54 033e
00000080: e665 38bd 7333 a0be 4cf3 fd3b 267c 523e
00000090: 00ac e5ba 1698 9b3d 90f0 b53d 2200 cabe
000000a0: 469d f03c 17c2 273e c4f6 313d 12f5 3d3e
000000b0: a6fd 833e 54ec 633e b8dd 2e3d 2a19 6a3e
000000c0: ba1c 7e3d 9a49 323e 57bd afbd 96ce f03d
000000d0: 7d31 213d 2dd7 23bf 6a6b ba3d 9c98 513e
000000e0: 72ab 543c f5dd 1c3d bcd6 133e abcb 823d
000000f0: fe0c 643e 8022 37bd c6db f33d 72fe 013d
0.060283415 0.059441525 0.06759857 0.13421491 0.11334908 0.078471415 0.2522107 -0.27434516
0.16255373 -0.02072914 -0.13552012 0.07590352 -0.012737438 0.19722205 -0.14342143 0.09962215
0.044909626 0.2150108 0.061356295 0.022094421 0.034305576 -0.038295165 -0.3763696 -0.46379662
0.22400595 0.16502975 0.0023405496 0.037756253 0.04689536 0.45706356 0.05336637 0.1282515
-0.045019053 -0.31289253 0.0077499505 0.20555171 -0.0017522573 0.075973675 0.08883774 -0.39453226
0.029371869 0.16382633 0.043448225 0.18550518 0.25779456 0.22258121 0.042691916 0.22861162
0.062039115 0.1741089 -0.085810356 0.11758153 0.039353836 -0.6400021 0.09102519 0.20468372
0.012980329 0.038297612 0.14437383 0.06386503 0.22270581 -0.044710636 0.11907153 0.0317368

conv1.1.running_var f4 [64]
00000000: f86c dd41 9979 8642 783e 1d43 1b7d f641
00000010: 25bf de42 c939 8f42 b12f f141 9a5e ed41
00000020: 6ab4 c842 f530 8f42 45a7 9241 3e67 de42
00000030: 22b1 c942 218a e641 edd1 2f42 8f32 a542
00000040: 2c60 b242 717d 5642 3c7a e242 5bc1 8142
00000050: dd40 b142 938b 9641 2096 cb41 f379 ef41
00000060: 1dc7 7142 e206 cd42 bfb9 d042 000b 9341
00000070: 28f4 ba42 0056 9842 ce5d fa42 7179 7642
00000080: 44cc 4f43 7c8e d241 7903 2042 ffcd 0743
00000090: 7861 db42 d04f c042 bbb2 7742 962f 0342
000000a0: 122a a941 9d02 c441 b645 2442 917b c042
000000b0: a49f 7042 4eea e942 73b4 ab42 9b16 e842
000000c0: 885b c341 5198 9f42 1aad 0343 b674 aa42
000000d0: c3ba 0b42 8674 0f42 bdd0 8a42 981a e741
000000e0: 8809 1043 f905 1c42 6c88 4b42 3da1 0e42
000000f0: 64b6 5e42 2b7e ca42 5288 c842 c168 d941
27.678207 67.237495 157.24402 30.811087 111.37333 71.61286 30.148287 29.671192
100.35237 71.59562 18.331675 111.201645 100.84596 28.817446 43.955006 82.59875
89.187836 53.6225 113.23874 64.87765 88.626686 18.818151 25.448303 29.934546
60.444447 102.51344 104.362785 18.380371 93.47687 76.16797 125.18321 61.618595
207.79791 26.319572 40.00339 135.80467 109.69037 96.15588 61.92454 32.79647
21.145542 24.501276 41.068077 96.24134 60.1559 116.95763 85.85244 116.04415
24.419693 79.79749 131.67618 85.22795 34.932384 35.863792 69.40769 28.887985
144.03723 39.005833 50.883224 35.65746 55.678116 101.24642 100.26625 27.17615

fc1.0.weight f4 [128, 128]
00000000: 074b 123d 8399 6abd 4825 d3bc a816 c53c
00000010: 896a 01bb 242d 383d f960 813d a376 5f3d
00000020: f627 fcbc 4a66 38bd 2eef c03c 36f0 5dbc
00000030: 1b6c cbbd 6918 efbc 6230 eebc 52d7 4ebd
00000040: 8207 a23d b0e4 2cbd a35c 52bc 9826 5e3c
00000050: d220 763c ebc3 eb3c 132b a43d 3447 253c
00000060: 563b 823d 990d 333d 08f0 a7bd a3d9 a6bc
00000070: efd3 aa3c af26 423c 303f d13d 5c40 523d
00000080: b076 6cbd b43e cb3d ef5f c93d 2d5c cf3d
00000090: b058 693d 6a5f e03c e214 ed3d 8430 04bd
000000a0: 21aa 533d a20d 993c 5a6d 143d 228c 8abd
000000b0: fc53 c4ba c8e5 9cbd 6a79 d3ba ac10 dbbc
000000c0: 1cce 6cba 591b e23d c807 cb3c 1043 c03d
000000d0: 4569 b03c ad39 263d 843f a33b 3ea5 1fbd
000000e0: c6a6 163d d33d 6e3d 925c 6ebd 0001 d53d
000000f0: 3d1c 5c3d 5326 7cbd 2bee 55bd fb18 a83d
00000100: 8673 1d3c c369 8dbd ac61 633c 6547 c03d
00000110: 9543 7dbd e545 64bd 39a8 a33d 76de 4cbd
00000120: e065 783d e492 9e3b cc2f c3bc d081 ae3d
00000130: cac4 b03d 1f56 8fbd c444 c2bd 79ac da3d
00000140: 3692 aebd f1a7 8cbd cb32 c0ba 97f9 1dbd
00000150: 2fd3 dabc ab10 27bd 7b92 bb3d ae63 473d
00000160: e69a 003b 7ded 7cbc 8cdd 8f3d f702 a8bc
00000170: 2164 743d b993 d03d df5d d53c 25be be3c
00000180: dd4a e73d 8470 80bd b5ee fc3c f750 ca3d
00000190: cf4f ac3d b00c 5b3d d3db 64bd 9f12 893d
000001a0: 15d4 3e3c 5e01 b33d 5444 6b3c 24e6 2b3b
000001b0: c602 8d3c f5d2 48bd 8ce1 0cbd d66b fabb
000001c0: fffb c13d 861d 71bd 8fcd 62bc 31bd 8bbd
000001d0: 6088 fcbc f1d1 6e3d db64 343d 1307 d33d
000001e0: e118 793d 9efc 05bd d4e6 4abd da9b 03bd
000001f0: 0473 773d 91d2 3a3d ac4a 06bd 5f98 22bc
00000200: f01a b9bd 92a3 7d3c d315 22bc 4fd5 443d
00000210: b188 833d c2db a4bd 9bf7 77bd 241b 91bd
00000220: 91e8 bdbd ea0b 66bd 5ba9 91bd f7d1 e9bd
00000230: 4ea1 0c3d ddfd a2bb 2d70 783d 3a33 313d
00000240: 6639 133d 1ebf 8e3c 5e45 813b ac4b c63c
00000250: 801b d0bc b94c cf3d eb05 efbd a2a9 60ba
00000260: 304b b8bc 0594 44bd bf3a 903d 6ebf b3bc
00000270: b13f ccbd d184 7abd 4e92 28bd c09e cbbc
00000280: 4304 cdbc 34f9 7c3c 31fd e6bd 5aff e0bd
00000290: bd4c b3bd 8c1c cdbc 0c43 033c eb61 873d
000002a0: cf8d 563d 37eb 76bd e840 23bc b9d8 483d
000002b0: 0abb 253d 6eea 913c e658 713c 8520 8a3d
000002c0: 2909 cdbc a5a9 903c 6d62 473d 6ebc 73bd
000002d0: 90bd 52bd 93d9 b1bc 45fc 353d e171 f03d
000002e0: 72ea ecbc 0ad5 853b e48a ec3d 70fe a8bd
000002f0: 1ddf bdbd bbc5 b7bd d2d2 183d c25b 88bd
00000300: c4f6 ee3c 9d23 d6bc 1a05 ce3d b8ef 653d
00000310: 0e0c ffbd bfe8 0c3d 8f8e b83d cd2e eb3c
00000320: 679b cbbd 3e62 823c 40c2 533c a593 7abd
00000330: 6ae6 563c 35f8 14bd 40eb d83d 5577 563b
00000340: a137 b73d 13ce d8bb bcc6 c83d 0aa8 403c
00000350: c514 bbbc 95bb c4bc 49ef bdbd 6091 c8bd
00000360: 0080 ba3c b811 a4bc bc9d 81bd c31b 46bc
00000370: 6744 24bc 5001 27bc 7b5c a2bd 31e5 813b
00000380: 4ccd e0bd 0b47 1fbd 2984 96bd bb0a d0bd
00000390: c670 e0bd 0c43 a6bd ee41 3dbd 0815 8bbd
000003a0: 5fe4 923d d27e aabc 413a 313d 49d5 66bd
000003b0: 4e40 bebd f4dd 623d 5236 6c3d fbe8 153d
000003c0: 233d 33bc 52a3 8fbd 8d79 aebd f529 83bd
000003d0: 2b3b e7bc 93ab 33bd 2986 19bd 21c2 43bd
000003e0: e0cb e5bc b8d3 39bd 929a f2bc 2c69 fbbd
000003f0: 4d8d 0e3c 74ec afbc 5263 013e 4256 853b
0.035716083 -0.057275306 -0.025774613 0.024058655 -0.0019747338 0.044964924 0.06317324 0.0545565
-0.030780774 -0.045019425 0.02355155 -0.01354604 -0.09932729 -0.029186444 -0.029075805 -0.050498314
0.07911588 -0.04221028 -0.012839469 0.013559006 0.015022473 0.028779944 0.08016028 0.010087777
0.06358974 0.04371414 -0.08200079 -0.02036745 0.020853011 0.011850043 0.1021713 0.05133091
-0.057730377 0.09924069 0.09832751 0.10125003 0.056969345 0.027389247 0.11576249 -0.03227283
0.05167592 0.018683258 0.0362371 -0.067650095 -0.0014978643 -0.07661015 -0.0016134207 -0.026741348
-0.0009033398 0.110403724 0.024783984 0.09387791 0.021534571 0.040582348 0.004981937 -0.038975947
0.03678014 0.05816443 -0.05819375 0.10400581 0.053737868 -0.061559986 -0.052229088 0.0820789
0.009610062 -0.06904938 0.013878267 0.093886174 -0.06183203 -0.05573072 0.0799107 -0.050016843
0.06064403 0.004839288 -0.023826502 0.085208535 0.086312845 -0.06998848 -0.09485772 0.10677428
-0.08523981 -0.0686797 -0.0014663575 -0.038568106 -0.026712028 -0.04078738 0.09158798 0.048679046
0.0019623577 -0.015437481 0.070246786 -0.020509226 0.059665803 0.10184426 0.026045738 0.023284027
0.11293576 -0.06271461 0.030875543 0.09878724 0.0841366 0.053478897 -0.055873703 0.06693005
0.011647244 0.08740495 0.014359552 0.0026229704 0.017213237 -0.04902931 -0.034394786 -0.0076422496
0.094718926 -0.058866046 -0.013842954 -0.06823195 -0.030826747 0.058305684 0.044041496 0.10304084
0.060814742 -0.032711618 -0.04953654 -0.032131054 0.06041242 0.045610968 -0.032786056 -0.009924023
-0.09038341 0.015480893 -0.009892899 0.04805499 0.06422556 -0.08049728 -0.06053887 -0.07085255
-0.09272874 -0.056163706 -0.0711238 -0.11417001 0.03433352 -0.0049741105 0.060653854 0.043261744
0.03594341 0.017425116 0.003945037 0.024206005 -0.025403738 0.101220556 -0.11671051 -0.0008570199
-0.02249679 -0.047992725 0.07042455 -0.021941867 -0.09973086 -0.06116182 -0.041155152 -0.024855971
-0.025026446 0.015440274 -0.11278761 -0.109862044 -0.08754871 -0.025038026 0.008011591 0.06610473
0.052381333 -0.060282912 -0.009964205 0.049034808 0.040461577 0.01781198 0.014730668 0.06744484
-0.025028782 0.017659018 0.04867785 -0.059505872 -0.051450312 -0.021710193 0.044430036 0.11740471
-0.028920386 0.004084234 0.11549929 -0.08251655 -0.09271071 -0.08973261 0.03731043 -0.066581264
0.029170401 -0.026140029 0.10059567 0.056136817 -0.12453471 0.03440165 0.09011566 0.02870884
-0.0994175 0.015915986 0.012924731 -0.06117596 0.013116458 -0.03636952 0.105917454 0.0032724936
0.08946157 -0.006616363 0.098035306 0.011758814 -0.022837052 -0.024015227 -0.09274156 -0.09793353
0.022766113 -0.02002798 -0.063289136 -0.01209158 -0.010026074 -0.010193184 -0.079277955 0.0039640893
-0.10976657 -0.03888611 -0.07349426 -0.10158297 -0.1095901 -0.08118257 -0.046205454 -0.06791121
0.071724646 -0.020812426 0.043268446 -0.05635575 -0.09289609 0.055387452 0.05766899 0.03659914
-0.010939869 -0.07013573 -0.08519278 -0.06404487 -0.028226456 -0.043864798 -0.03748146 -0.047792558
-0.028051317 -0.045367926 -0.02961472 -0.12275919 0.008700681 -0.021475054 0.12635544 0.0040691206

fc1.0.bias f4 [128]
00000000: 8552 783c b2c0 b53d bffc 36bd b14d 0b3d
00000010: 680f e33d 4048 d33c e06c 483d 8ab4 b23d
00000020: db28 2dbd eed6 eebd a9e3 c9bd 0fd4 8abd
00000030: 55b0 b53d 5166 05be f980 e43c a0c7 87bc
00000040: 8dcb ce3d 3f0c 5ebd 9e09 f93d b36c c3bc
00000050: f408 ebbd 4292 60bd cfed a2bd 103b 9dbd
00000060: 23e4 b03c 0b14 c53c 42cc aebd c692 4abd
00000070: 447d 1c3e e6fb ad3d 2239 cc3d 727c eb3c
00000080: 8125 923d 70eb 073d c9dd e5bd b980 9bbd
00000090: 6477 3e3d 0da2 e33c d37d 5f3b 0e0f ca39
000000a0: 751c 2e3c 3dab 83bb 5470 0ebe 0e89 133e
000000b0: 4cf7 c83c a621 d6bd 3138 1c3b 01dc 113e
000000c0: 9ce4 903d f8d1 53bd 79a8 1fbd 0c83 f8bd
000000d0: 75e8 063d 4a5e b3bd 1c1a cc3c 1c03 313c
000000e0: b910 e33d f234 363c 93e0 f4bc b84d 5b3d
000000f0: 01c5 b43c 12f5 e7bc b4eb be3d 67e2 cbbc
00000100: f522 b43d 8e6a 113d adc3 57bd b945 4ebc
00000110: 8e34 0a3e b4a3 ddbd aba3 05bd 6306 c7bc
00000120: 623e 883c 01e2 85bd df2d cfbd 55e5 ac3d
00000130: 94b8 ba3d 8884 8dbd 053f b43b 4859 1cbd
00000140: 3de8 94bd 9330 a7bc eeed ccbd 8541 a33d
00000150: 51b1 103e 3c82 b23c 8a31 ba3d 203f cf3c
00000160: 8f61 e9bd a474 9e3d e770 ae3d af40 eb3d
00000170: 6bb3 c23d a93a ab3c 9f23 a8bd 4f83 26bd
00000180: fc9a cfbc 3c32 cd37 64ad d4bc ba58 c3bb
00000190: cd0c 203e 74ba f93c 5e62 f4bd 7ca2 b7bc
000001a0: 5825 f73c 0e8c 403b 3a91 edbd 5d46 503d
000001b0: dd62 883d 405a c13c 1189 3c3d 44aa bb3c
000001c0: 52fa 2e3d c5d6 ce3d 0b18 adbc 6e99 c5bd
000001d0: f829 303d 2753 af3c 0c49 c53d 257c 443c
000001e0: 99ba 93bd aa0c 013e 7dfc 24bd c530 d43c
000001f0: 617b 153d 3edb 063e 6d2f 0a3e 34fd 173e
0.015156393 0.08874644 -0.04467463 0.03400964 0.11086923 0.025791287 0.048931956 0.08725841
-0.04227529 -0.11662088 -0.09857876 -0.06778728 0.08871523 -0.13027312 0.02789353 -0.01657468
0.10097418 -0.054210898 0.121600375 -0.023855543 -0.11476317 -0.054826982 -0.07955515 -0.07677281
0.021593159 0.024057409 -0.08535053 -0.04945638 0.1528216 0.084953114 0.09971835 0.028745864
0.071360596 0.033183515 -0.11223943 -0.07592911 0.04650058 0.027787233 0.0034102097 0.0003853966
0.010626902 -0.004018216 -0.13910037 0.14407751 0.024531983 -0.10455637 0.0023837204 0.14244081
0.07074854 -0.051713914 -0.038979027 -0.1213437 0.032936532 -0.087582186 0.024914794 0.010803964
0.11087174 0.011121022 -0.029892242 0.053540915 0.022066595 -0.0283151 0.093223006 -0.02488823
0.0879573 0.03550201 -0.052676845 -0.012589865 0.1349661 -0.108222395 -0.03262679 -0.024295038
0.016631309 -0.065372474 -0.10116171 0.08442179 0.09117237 -0.06910044 0.0055006766 -0.038171083
-0.072708584 -0.020408904 -0.10006319 0.07971481 0.14130141 0.021790616 0.0909148 0.025298655
-0.11395561 0.07737091 0.08517628 0.11486947 0.095068775 0.020901995 -0.08209919 -0.04065257
-0.025342457 2.4461297e-05 -0.025961585 -0.0059615048 0.15629883 0.030484416 -0.119328246 -0.022416346
0.030169174 0.0029380354 -0.115999654 0.050848354 0.06659482 0.023602605 0.046029154 0.022908337
0.042719193 0.10099558 -0.021129629 -0.09648405 0.043008775 0.021401955 0.09633073 0.011992489
-0.07213325 0.12602487 -0.040279854 0.025902161 0.036494616 0.13169572 0.13494654 0.14842683

fc1.3.weight f4 [2, 128]
00000000: 834b 02be e308 fc3d 30b0 4b3d 06a7 07bd
00000010: aca2 253d 77b1 82bd 7331 9f3d 3b50 0a3e
00000020: 85d1 583d 5fd7 bbbd 7fa8 88bd db80 ecbd
00000030: 691e e63d 8887 b1bd 4393 0dbd 73c6 b93d
00000040: 21d2 073e a1dc d8bd be9b bc3d 8b0d b7bd
00000050: c6b4 64bc 9c2f e4bd 1677 55bd d8c5 bfba
00000060: af4b 55bd 3367 ac3d baf4 eabb 6422 dfbd
00000070: 3096 973d 4dfc 1e3d 2378 4e3d 8a53 443d
00000080: f525 c33c b040 86bc 69bf f0bd 39a9 51bd
00000090: f7e0 07bd cc58 593d 0bb2 523d fb0f 37bd
000000a0: 02e8 223d dff7 6dbd a713 dbbd b4d2 823d
000000b0: 5b07 abbd 3370 c03b 7fdb 3a3d 7304 a73d
000000c0: 2e01 093e 2aca b6bd 1f4c 91bd 9327 05bd
000000d0: 88a7 bfbd 38ca 88bd c8c9 b33c a459 95bd
000000e0: 094b 973c a660 123c c465 e1bd a102 913c
000000f0: 7df1 3c3d db41 473b 2546 c23d 8f8f 71bc
00000100: f4af ef3d 72bb 8f3d 17e6 1abd e79a f8bc
00000110: f35a 3f3d 4b2a d3bd c6d8 51bd 2fc5 20bd
00000120: 03ab e3bd d27f babd c08b b7bd 5f56 473d
00000130: 222b f13c 8ecb f4bc f9b1 b1bd 3ac1 b3bd
00000140: 1e90 d8bd c0d3 65bd 1e11 82bc 391e 813d
00000150: 16a7 d53d 1063 5ebd b607 053e 717a bf3d
00000160: 80a0 72bd f97f 1b3c 61f3 ef3d 6102 343d
00000170: c8d8 4b3d 42d8 183e 3577 98bd f912 12bd
00000180: 4478 983d 837e 173d d27f edbc b4b1 5abc
00000190: f90c c03d 1c8f 8dbd 4cff b0bd 08e1 f3bb
000001a0: 59c4 053b fcb4 2dbb d895 4ebd 26b2 e0bc
000001b0: fe4f e63d c43c 9bbd 9aad d03d 44fe a2bd
000001c0: 2c29 cb3d 62de ad3d ac80 1d3d 82ca 4fbd
000001d0: 9632 a73a b96a 48bc 400e 1b3d e555 f43c
000001e0: cf52 acbd 33d0 053e 9bdb 7c3d 6531 a43d
000001f0: c22e e93d 8c5e 013e 84c6 6b3d 4e22 5f3d
00000200: b172 023e 9b75 9739 6b4c 923d fcf8 6d3d
00000210: 1fc0 12be bfbf 3b3b 883c 84bd b301 d3bc
00000220: 939f bb3b 7216 743d f728 993d 9ca4 84bb
00000230: 64f4 e3bc 8e74 a43d 31d2 e53d cada 86bd
00000240: 5633 11be 7097 33bc bd03 d4bd 011e eabb
00000250: 558f 823d 9c45 a13d 2b1a 383d 2763 cf3c
00000260: 6f6b a83b e54a 85bb da51 d93d c269 133d
00000270: b22f 2bbd 67c0 12bd 0a16 c6bd fab4 58bd
00000280: 362a d9bd 5c83 553d 1ce1 d73c 96b9 0a3d
00000290: 012b a23d f4af 8ebd c43c 0fbe af3a 523d
000002a0: a0c0 863d e61d eb3d 4928 a0bb 9113 f0bd
000002b0: 5feb 30bd c075 a53d 1543 12bd a91f edbd
000002c0: 5355 05be 94fa 953d 127f 8cbd 1746 f73d
000002d0: 05df 4c3c 8bb2 c73d a271 e03c e789 afbc
000002e0: f05b a2bd df45 bf3d 4c86 57bc 314a 003d
000002f0: 6a97 cc3d 38b2 9dbd c605 e9bc 9ff9 683d
00000300: 6ea7 69bd e600 bfbc a8a1 023d aecf 39bd
00000310: 8d74 0ebe ae17 e13c 9244 00bd 0100 a23d
00000320: 80d2 9c3c d101 97bc 317a a93c f523 edbc
00000330: 356a 84bd 21a4 f73d bedf 263d 6100 3b3d
00000340: 6e37 383d 6ef6 f1bc 2d57 df3d 2c99 bbbd
00000350: 2e13 11be f8d6 82bd 1d5f b7bd 51c9 04be
00000360: 322a e03c 129a e7bd 1695 50bd ee07 21bd
00000370: 6c40 8abd a2a1 14be c13b c43d 6b52 863d
00000380: 2189 223b 8990 63bd da7e 8d3d 8d49 15bc
00000390: 68f3 16bd 9670 293d b68e 0b3e e755 0dbd
000003a0: ec16 033e c426 b63d 41f3 b03d fc9c 09bd
000003b0: a572 babd ed88 953a 27d5 d2bd c4c4 663d
000003c0: 9662 e4bd c91a b1bd 6aae 2cbd ea64 7f3d
000003d0: e5d6 0fbe 18bb adbd 26c4 00be 7f55 cdbd
000003e0: fcbd c63d cc95 e6bd 6d38 46bd f38b b2bd
000003f0: b861 c7bd 691e e1bd b50f a8bd cc11 bdbd
-0.12724118 0.123063825 0.049728572 -0.03311827 0.04043834 -0.06381505 0.077731036 0.13507168
0.05293419 -0.09171938 -0.06672763 -0.11548015 0.11236269 -0.08668429 -0.034564268 0.09071054
0.13263752 -0.105889566 0.09209393 -0.0893813 -0.013959115 -0.11141893 -0.052115522 -0.0014631106
-0.05207413 0.08418121 -0.007170287 -0.10895231 0.07401693 0.03881483 0.05040754 0.04793123
0.02382181 -0.016388267 -0.117552586 -0.051186774 -0.033173528 0.0530632 0.051439326 -0.044692975
0.03977204 -0.058097716 -0.10697108 0.06387845 -0.08351012 0.00587275 0.045619484 0.081551455
0.13379356 -0.089252785 -0.07094597 -0.032508444 -0.09358126 -0.06679195 0.021946803 -0.07292488
0.018468397 0.008934176 -0.110057384 0.017701449 0.04612874 0.0030404243 0.09486035 -0.0147437
0.11703482 0.07018174 -0.037817087 -0.0303473 0.046717595 -0.10310801 -0.051232122 -0.03925055
-0.11116602 -0.09106411 -0.08962202 0.048666354 0.029439513 -0.029882219 -0.08676524 -0.087770894
-0.10574363 -0.056110144 -0.015877303 0.06304593 0.1043226 -0.054293692 0.12991223 0.09349526
-0.059235096 0.00949096 0.11716343 0.04394758 0.049767286 0.14926246 -0.07444612 -0.035662625
0.07444814 0.036985885 -0.028991614 -0.013348032 0.09377474 -0.069120616 -0.08642444 -0.0074425973
0.0020411222 -0.002650558 -0.05043587 -0.027428698 0.11245726 -0.075799495 0.10189362 -0.079586536
0.09919962 0.08489682 0.03845279 -0.050730236 0.0012756165 -0.012232476 0.037855387 0.029826114
-0.08414232 0.13067703 0.06173287 0.08017234 0.113858715 0.12633723 0.057562366 0.054476075
0.12739064 0.00028888587 0.07143482 0.058098778 -0.14331101 0.0028648225 -0.06456858 -0.025757646
0.00572581 0.059591718 0.074785165 -0.0040479433 -0.027826495 0.080300435 0.112217315 -0.065846995
-0.1417974 -0.0109613985 -0.103522755 -0.00714469 0.06374995 0.07874605 0.04494683 0.025315834
0.00513976 -0.004067766 0.10611315 0.03598953 -0.041793533 -0.03582802 -0.09672172 -0.052906968
-0.10603754 0.052127227 0.026352458 0.033868395 0.079183586 -0.06967154 -0.13988024 0.051325496
0.06579709 0.11480312 -0.004887615 -0.11722482 -0.043193217 0.080791 -0.035708506 -0.11578304
-0.1302083 0.073231846 -0.06860174 0.120739155 0.012504344 0.09750851 0.027397934 -0.021428062
-0.07927692 0.09339499 -0.013154577 0.031320754 0.099898174 -0.07700008 -0.028445136 0.056878682
-0.05704444 -0.023315858 0.03189245 -0.045364074 -0.13911648 0.027477112 -0.031315394 0.07910157
0.019143343 -0.018433483 0.020688148 -0.02894781 -0.0646557 0.12091852 0.04074072 0.04565466
0.044974737 -0.029536452 0.10905299 -0.091600746 -0.14167473 -0.06388658 -0.08953688 -0.12967421
0.02736387 -0.113086835 -0.05092343 -0.039314203 -0.06750569 -0.14514783 0.0958171 0.06558689
0.0024800973 -0.05555776 0.06908961 -0.009111774 -0.036853224 0.041367136 0.13628659 -0.03450575
0.12801713 0.08894113 0.08640147 -0.033596978 -0.09103898 0.0011408605 -0.10294562 0.056339994
-0.11151616 -0.08647687 -0.04215852 0.0623521 -0.1404682 -0.08482951 -0.12574825 -0.10026073
0.097042054 -0.1125904 -0.048393656 -0.087180994 -0.09735435 -0.109921284 -0.08206121 -0.0923191

fc1.3.bias f4 [2]
00000000: 0021 f63d 331d 0f3d
0.12018013 0.034939956

exp_avg f4 [64, 60, 3]
00000000: b22a 1439 3dbf d0b8 0b45 d9b5 e8c9 beb7
00000010: f818 b2b8 699a f6b8 8f5e 13b9 70d3 1db8
00000020: 70cc 25b9 47fb 60b9 a39f a538 d21f 71b8
00000030: 0c1d a2b9 07b5 3939 1017 d6b8 bc1b c4b9
00000040: fd4c 5639 1a4e d8b6 6cb9 d7b9 4810 8a39
00000050: 3690 7039 c36f dfb9 d11f 6039 7d1e 9b39
00000060: 6a17 d7b9 09dc b338 6189 de39 202e b1b9
00000070: 521f 8537 7d5b c739 d12b 67b9 2723 43b8
00000080: cece e239 dcf1 21b9 637c f1b8 ca9c 2539
00000090: 037c afb8 d76e b2b8 af91 8c39 91ad ecb7
000000a0: cdbd 81b8 8b9c c139 7d3a b938 8601 44b8
000000b0: 6bee f939 b284 1939 bfb2 ffb8 ee51 a539
000000c0: 60d2 4039 c34c edb8 6773 4939 a429 9c38
000000d0: ae81 a1b7 437b 0439 43d6 d1b8 e3f9 9b38
000000e0: 0be3 f837 4c37 56b9 be4e 2939 4138 1ab6
000000f0: 1f2c 8bb9 0b0a ff38 630e 3cb8 daf3 8eb9
00000100: 79fe ad38 fbf3 c8b8 0e05 78b9 dae8 d238
00000110: a4cc 58b8 2d4a 9eb9 d3e0 6e38 05bd fcb7
00000120: d8cd 7fb9 73bb d638 cea0 f638 5d82 87b9
00000130: 34b8 1738 a03c bd38 0e51 84b9 775d 5db8
00000140: 96d6 9738 95b6 13b9 9cdd 07b9 0369 d838
00000150: a18b 24b8 3e0b 1ab9 9869 fc38 8dad 5e38
00000160: 54b6 12b9 f101 4839 d0cd 7e38 8c8f 26b9
00000170: bdfd 6a39 b5e5 5c36 c25f fcb8 4057 ad39
00000180: e15f 4c37 5e69 f9b8 d080 8f39 27bb 37b7
00000190: 96e7 81b8 85e3 6439 3731 90b8 dc5b 0338
000001a0: f568 ac38 dc4b deb8 f5e2 0639 3c6a 2739
000001b0: 7e95 65b9 2e32 0639 d678 3139 9c26 70b9
000001c0: a43f a038 b177 cb38 80d5 8db9 0f42 0338
000001d0: 9f6a 89b8 e217 34b9 89e1 1138 466e 0d38
000001e0: c8a2 33b9 0687 9eb5 2a6d 3fb8 62f7 efb8
000001f0: d904 3937 cf46 1437 3beb c7b8 1532 3536
00000200: 5fd2 9737 9ca2 a1b8 2899 2ab8 8db1 dd38
00000210: 91e1 48b8 914a e4b8 875a ad38 76ac 63b7
00000220: fdfc e4b8 b869 a339 38ff 49b8 a9fc 1cb9
00000230: e891 9439 9797 9d36 71a2 13b9 56d4 a339
00000240: 297f 9437 10f7 1ab9 d6a5 d539 907c f9b6
00000250: 223f d4b8 ed4f a139 c622 36b8 6bd6 4eb8
00000260: 3b29 b739 fbc8 e0b6 05c7 90b7 139c 8a39
00000270: 9774 a4b5 140d 2b37 a8ca be38 e8a7 3035
00000280: 0394 4138 b531 c7b8 864e 2eb8 c0b5 cc37
00000290: 27d2 d0b9 1892 bbb8 caf6 aab7 fad7 0dba
000002a0: 3e9b 03b9 2bb2 3837 c412 9bb9 30a1 0fb9
000002b0: 724d d935 8cde 6eb8 6aab f0b8 4952 d637
000002c0: 5716 7b39 71c1 3bb8 f037 5bb7 f542 0c3a
000002d0: 020f 4139 5450 d238 26aa 2637 1f01 2739
000002e0: 7c72 ba37 c6ba 3ab8 69d8 0739 b84b 2c38
000002f0: 4b7b 6db8 e8aa 1339 67f5 e437 154b a5b7
00000300: d71c b838 b8e6 2fb8 1f16 e638 7e15 cf37
00000310: 0127 afb8 c948 1339 4f81 db38 7938 acb8
00000320: 3aa4 9939 84e5 2839 e59d d0b8 1e5d 9839
00000330: 6765 6639 4739 b3b8 f38b 6639 b607 7239
00000340: 589e 27b9 9b6b fd38 dca7 5d39 7b4e 19b9
00000350: b561 b038 c824 4b39 10b6 88b9 8e5a f738
00000360: 42cb 7139 3587 5ab9 c10b 1e39 dbe3 9039
00000370: ab72 42b9 3930 1039 ae96 9739 58ee c6b8
00000380: fe03 1539 02b1 6d39 e639 8ab8 d920 cb38
00000390: 4679 4539 bf8c 22b8 e383 d138 614b 2d39
000003a0: 2d5c ed37 c6b7 a3b6 e3da fc38 a49b a138
000003b0: 1386 9eb7 db3d c138 ade4 e138 ba2a c638
000003c0: 7986 b038 fc64 3d38 5866 1b39 443c 4838
000003d0: cb56 44b7 8247 4b39 f0f4 7238 2524 b2b8
000003e0: e337 4839 f1d3 9638 5eb1 ffb8 0a33 5039
000003f0: dbb0 0c39 f2f6 41b9 7513 2739 c41e 4b39
0.00014130285 -9.953834e-05 -1.6187854e-06 -2.2743785e-05 -8.492352e-05 -0.00011758955 -0.00014054238 -3.7628633e-05
-0.00015811785 -0.00021455913 7.897548e-05 -5.7488513e-05 -0.0003092069 0.00017710413 -0.00010208611 -0.00037404697
0.00020437311 -6.446394e-06 -0.00041146146 0.00026333542 0.00022941906 -0.00042617143 0.00021374157 0.0002958662
-0.0004102544 8.57637e-05 0.00042445495 -0.00033794437 1.586942e-05 0.00038024402 -0.000220462 -4.652436e-05
0.0004326016 -0.00015444256 -0.00011514944 0.00015794035 -8.367749e-05 -8.508347e-05 0.00026811424 -2.8214215e-05
-6.1865525e-05 0.00036928462 8.832382e-05 -4.673146e-05 0.00047670616 0.0001464065 -0.000121926416 0.00031532295
0.00018388918 -0.000113153386 0.00019211844 7.446416e-05 -1.9253082e-05 0.0001263442 -0.00010005806 7.437521e-05
2.9669629e-05 -0.0002042923 0.0001614643 -2.2980532e-06 -0.0002654502 0.00012161218 -4.483609e-05 -0.00027266034
8.296682e-05 -9.582188e-05 -0.00023653006 0.00010056952 -5.1689e-05 -0.00030191374 5.6953006e-05 -3.012876e-05
-0.00024395378 0.0001023923 0.00011760146 -0.00025846335 3.6172758e-05 9.0235146e-05 -0.00025237392 -5.2777552e-05
7.240211e-05 -0.0001408703 -0.00012957159 0.000103192426 -3.9230687e-05 -0.00014690773 0.00012035965 5.3090556e-05
-0.00013991568 0.0001907421 6.0749997e-05 -0.00015884469 0.00022410504 3.2916262e-06 -0.00012034133 0.00033062138
1.2181671e-05 -0.000118928714 0.00027371058 -1.0951225e-05 -6.1943356e-05 0.00021828532 -6.875622e-05 3.1318385e-05
8.221149e-05 -0.00010599915 0.00012863784 0.00015965936 -0.00021894832 0.00012797929 0.0001692505 -0.00022902567
7.6412485e-05 9.7020886e-05 -0.00027052686 3.1294356e-05 -6.552529e-05 -0.00017175035 3.478074e-05 3.371972e-05
-0.00017131411 -1.1811214e-06 -4.5639616e-05 -0.00011442487 1.1027988e-05 8.837974e-06 -9.5328745e-05 2.7000253e-06
1.8098564e-05 -7.7073666e-05 -4.0673796e-05 0.000105711726 -4.789379e-05 -0.00010885776 8.266145e-05 -1.3570409e-05
-0.0001091901 0.0003116855 -4.8159825e-05 -0.00014971443 0.00028337468 4.696612e-06 -0.00014079527 0.00031247985
1.7702188e-05 -0.00014778622 0.00040750083 -7.4352793e-06 -0.00010120707 0.00030767862 -4.3424567e-05 -4.931392e-05
0.000349352 -6.6991174e-06 -1.7258813e-05 0.00026437695 -1.2252884e-06 1.0195439e-05 9.097654e-05 6.5809445e-07
4.6152632e-05 -9.498318e-05 -4.1557963e-05 2.4403329e-05 -0.00039829427 -8.944067e-05 -2.03805e-05 -0.0005410906
-0.00012550966 1.1008738e-05 -0.00029577885 -0.0001369759 1.61903e-06 -5.6950885e-05 -0.0001147602 2.5549105e-05
0.00023945548 -4.476443e-05 -1.3066441e-05 0.00053505535 0.00018411505 0.000100285426 9.933987e-06 0.00015926779
2.2226239e-05 -4.4519802e-05 0.00012955222 4.1078514e-05 -5.662003e-05 0.0001408268 2.7293992e-05 -1.9704496e-05
8.7791756e-05 -4.1938125e-05 0.00010971375 2.4686331e-05 -8.351915e-05 0.00014046127 0.000104668194 -8.212118e-05
0.00029304792 0.0001610723 -9.947623e-05 0.00029061077 0.00021972285 -8.546054e-05 0.00021986644 0.00023081791
-0.00015985349 0.00012084023 0.00021138735 -0.00014620453 8.410533e-05 0.0001937329 -0.00026075589 0.00011794745
0.0002305927 -0.00020840469 0.00015072433 0.00027635586 -0.00018543999 0.00013750874 0.0002891323 -9.485771e-05
0.00014211235 0.00022668022 -6.591137e-05 9.685913e-05 0.00018832562 -3.875489e-05 9.9904624e-05 0.00016526647
2.8295524e-05 -4.8791726e-06 0.00012057067 7.7060686e-05 -1.8897501e-05 9.2144786e-05 0.0001077143 9.449334e-05
8.4173815e-05 4.515516e-05 0.00014820078 4.7739843e-05 -1.1702718e-05 0.00019386227 5.7925412e-05 -8.494434e-05
0.00019094306 7.1920345e-05 -0.00012192385 0.0001985544 0.00013417324 -0.00018497909 0.0001593361 0.0001937105

exp_avg_sq f4 [64, 60, 3]
00000000: 142c 3333 dac0 ec33 88c5 3034 5d56 0533
00000010: f206 8f33 5411 4234 3fe2 6233 819d 8533
00000020: d31e 2734 0e57 f133 eb64 9633 3d86 0734
00000030: d8ee 8134 6f82 2d34 5067 0f34 918f a234
00000040: 32f4 7134 4ba2 5234 8136 ae34 9158 8834
00000050: b1ba 3234 910c 6934 f285 3e34 8393 4834
00000060: 5b31 0334 95b3 c033 d888 4b34 b0d3 ad33
00000070: 9946 8633 c991 6334 9b45 9833 f660 4033
00000080: c284 4e34 0e7b 9633 eebd 3c33 ce0f 4e34
00000090: 1f87 9d33 ea32 2b33 4dd9 3934 b950 c433
000000a0: 0056 4133 5b8a 6534 6bf2 b033 4136 6a33
000000b0: 538f 8934 10a0 9433 1446 a533 0891 6b34
000000c0: 138f 6d33 d918 de33 1065 5634 8a9b 4e33
000000d0: 448b de33 573d 6e34 e41f 6c33 bc38 e933
000000e0: 0a86 b034 4245 b833 667f 2134 6bec c834
000000f0: 6b28 1334 3149 2f34 8cce b034 36f5 1b34
00000100: c06d 3e34 2108 a534 a88e 0034 23ce 1c34
00000110: 9967 9234 0419 f033 598a ff33 5d90 9134
00000120: 039c d833 d6d3 de33 6399 8b34 c660 b833
00000130: 7a7a 8f33 9a31 8034 07ae c233 7707 af33
00000140: 7a8d a234 2ebc cd33 a61b bd33 15b6 ad34
00000150: 5e92 ef33 3f6e 8e33 b56f 9e34 43ca ec33
00000160: f940 2233 5758 3a34 d272 e933 412b 5533
00000170: 603d 3334 c180 f333 456f ab33 5a6b 3c34
00000180: 424f 0234 ee6d b333 c4af 5e34 dee2 0534
00000190: 74ce b033 bbe5 9d34 1f5b b333 0259 a233
000001a0: 5a30 a434 3ddd 7933 3d90 c133 1b0c 8034
000001b0: d3bf 6733 9f9e b033 97ca 8534 c2ed b833
000001c0: fa49 9133 f4c7 8e34 9dbd d933 47a9 3b33
000001d0: 5daa a434 3b85 da33 6c0d 8133 b9b5 9a34
000001e0: 66bd c933 998b aa33 1f5a 8034 0355 b633
000001f0: e904 ae33 3477 7934 0c97 7a33 2ebd 9d33
00000200: 13d1 6734 6fe8 5133 aa2d 9733 2d0e 7f34
00000210: c526 b233 42c9 cc33 cf32 6f34 b2a6 cd33
00000220: 27e9 d733 3040 4f34 9269 ca33 8e19 b133
00000230: 4c65 1d34 6b25 e933 d99f 9c33 8dfe 1f34
00000240: 59a1 de33 504f c333 c972 3234 53ff f033
00000250: 6a9f e733 8457 8434 bf8a 0234 71eb ea33
00000260: 9b79 9434 049f 0534 ae26 0b34 8998 9c34
00000270: 6891 0634 e2e7 1434 7794 b534 d7d3 8633
00000280: 6135 fe33 54be ba34 f26e 1833 e55b b933
00000290: a8b4 cf34 bee7 4233 617e 8433 3efd dc34
000002a0: 91d5 8233 69f1 9b33 fad8 d034 3fe4 c433
000002b0: 2b1f fa33 80f6 0735 0a84 1034 444a 3934
000002c0: 16b2 0c35 83e1 3c34 b04f 5734 19c1 d834
000002d0: c584 a833 b960 ad33 32d0 4034 55f0 cc33
000002e0: d4cb cd33 8981 3934 97f7 9933 3c95 9533
000002f0: 6de4 1f34 2770 7133 d0de 8933 1067 fa33
00000300: 99ea 9633 8742 a533 a590 3534 1a4b bf33
00000310: 0958 e033 21e8 8434 630a cb33 96d3 0834
00000320: bd36 5034 096f be33 12d5 0834 d359 2834
00000330: eec3 9233 069f cd33 6eeb 3934 9766 8333
00000340: cb7a c433 13db 3e34 3391 8c33 c4b0 d533
00000350: d6d4 3b34 063f 8133 5302 da33 9bc9 0c34
00000360: bb57 8c33 ac46 d633 4b40 0434 fb38 b133
00000370: 51c6 ff33 755b 2034 7ca2 9933 cfd1 f233
00000380: 2a57 3834 738d 8833 0c69 9e33 efc0 3034
00000390: ccf0 9433 a7cd 7733 8f62 3634 f664 9c33
000003a0: 742f dd33 23cc 2234 3f82 dc33 cf33 4934
000003b0: d4d2 1c34 0403 1634 acab 5034 4222 0f34
000003c0: 44f3 0f34 4d78 1d34 a2da 0f34 ce15 f533
000003d0: a77d 0334 c4cd 1434 9142 d433 5df7 e033
000003e0: df0c ef33 df8e b233 6059 1134 8dce 0e34
000003f0: 6df3 9633 3421 3234 584e fd33 b4c8 a233
4.1716774e-08 1.1024686e-07 1.6463139e-07 3.1045023e-08 6.66022e-08 1.8073962e-07 5.2825495e-08 6.221945e-08
1.5564301e-07 1.1238272e-07 7.003276e-08 1.262169e-07 2.4201904e-07 1.6159332e-07 1.3355498e-07 3.027931e-07
2.2533712e-07 1.9616816e-07 3.2449682e-07 2.5396415e-07 1.664546e-07 2.1704388e-07 1.7743858e-07 1.8680116e-07
1.2218281e-07 8.9733625e-08 1.8955632e-07 8.094446e-08 6.252703e-08 2.1194059e-07 7.090713e-08 4.479167e-08
1.9233542e-07 7.007303e-08 4.39449e-08 1.9190995e-07 7.3354606e-08 3.9860346e-08 1.7308521e-07 9.1416446e-08
4.501453e-08 2.137762e-07 8.239734e-08 5.4531714e-08 2.562252e-07 6.920902e-08 7.6961584e-08 2.1938843e-07
5.5310988e-08 1.03422e-07 1.996707e-07 4.8104575e-08 1.0363013e-07 2.2187793e-07 5.4977036e-08 1.0860228e-07
3.288008e-07 8.5807656e-08 1.5040641e-07 3.742492e-07 1.3705146e-07 1.6324772e-07 3.2932837e-07 1.4524707e-07
1.7735056e-07 3.073956e-07 1.1972827e-07 1.4603624e-07 2.7269996e-07 1.1180421e-07 1.1899528e-07 2.7113393e-07
1.0086662e-07 1.0376213e-07 2.600237e-07 8.585771e-08 6.681235e-08 2.3877948e-07 9.0654844e-08 8.1504304e-08
3.027779e-07 9.580286e-08 8.8060276e-08 3.2356243e-07 1.1155929e-07 6.632444e-08 2.951107e-07 1.10263976e-07
3.7777657e-08 1.7354738e-07 1.0870794e-07 4.9632266e-08 1.6693002e-07 1.13389895e-07 7.983048e-08 1.7547919e-07
1.2136027e-07 8.355333e-08 2.0739304e-07 1.2469124e-07 8.233192e-08 2.941068e-07 8.351912e-08 7.559903e-08
3.058256e-07 5.8176045e-08 9.0134996e-08 2.3850666e-07 5.3958342e-08 8.224492e-08 2.4920584e-07 8.6114156e-08
6.765545e-08 2.6595046e-07 1.01393404e-07 4.3693287e-08 3.0671336e-07 1.01756505e-07 6.009472e-08 2.8816956e-07
9.394243e-08 7.9416345e-08 2.390743e-07 8.490499e-08 8.1033996e-08 2.3233298e-07 5.8345037e-08 7.345294e-08
2.1589612e-07 4.8873e-08 7.039792e-08 2.3753883e-07 8.295823e-08 9.536099e-08 2.2277094e-07 9.576378e-08
1.0054128e-07 1.9301729e-07 9.425561e-08 8.246853e-08 1.4658616e-07 1.0856714e-07 7.293392e-08 1.4900634e-07
1.03670295e-07 9.094822e-08 1.66193e-07 1.1222314e-07 1.0785773e-07 2.4650592e-07 1.2157669e-07 1.0939301e-07
2.7655628e-07 1.244444e-07 1.2959455e-07 2.9168248e-07 1.2532621e-07 1.3867933e-07 3.38219e-07 6.278395e-08
1.1837506e-07 3.4783682e-07 3.5491162e-08 8.631449e-08 3.86882e-07 4.5379913e-08 6.169717e-08 4.116245e-07
6.092444e-08 7.261662e-08 3.890089e-07 9.168479e-08 1.16472016e-07 5.0650124e-07 1.345908e-07 1.7256485e-07
5.2413213e-07 1.7590905e-07 2.0052425e-07 4.0373632e-07 7.84726e-08 8.073534e-08 1.7957134e-07 9.5432064e-08
9.5831325e-08 1.7276592e-07 7.169654e-08 6.965499e-08 1.489113e-07 5.6214187e-08 6.420089e-08 1.1660279e-07
7.0275924e-08 7.6955125e-08 1.690956e-07 8.9077915e-08 1.0446826e-07 2.4755812e-07 9.4548135e-08 1.2742962e-07
1.9391423e-07 8.8677616e-08 1.2743502e-07 1.5678897e-07 6.834294e-08 9.5749826e-08 1.7315116e-07 6.118824e-08
9.149297e-08 1.7774828e-07 6.5456696e-08 9.950739e-08 1.7493161e-07 6.0184945e-08 1.0151839e-07 1.311186e-07
6.535216e-08 9.978007e-08 1.2316848e-07 8.2525695e-08 1.19104364e-07 1.4934433e-07 7.1541734e-08 1.1307167e-07
1.7168045e-07 6.358723e-08 7.376556e-08 1.6461466e-07 6.935588e-08 5.769621e-08 1.6985926e-07 7.282681e-08
1.0299746e-07 1.516169e-07 1.026824e-07 1.8738432e-07 1.4605331e-07 1.3970936e-07 1.9433963e-07 1.3330376e-07
1.3406412e-07 1.466553e-07 1.3397451e-07 1.1412668e-07 1.2246038e-07 1.3858431e-07 9.884128e-08 1.0475808e-07
1.1131646e-07 8.314759e-08 1.3536692e-07 1.3299923e-07 7.029198e-08 1.6589621e-07 1.1795481e-07 7.5802205e-08

exp_avg f4 [64]
00000000: 2c91 10af 2fa3 0132 5e4b c030 7cba da2f
00000010: 0a65 082e 84f8 fcad 66a4 68af f20f a3ae
00000020: 9b58 93b1 4e55 1faf 2b8a b9ad 27d8 b031
00000030: 247b 792e f0d1 9c31 3c6e 8f31 33c1 82b1
00000040: d61a a931 1c50 572f a1ab 5932 e740 0d32
00000050: d540 6aaf 6677 702d 9c36 0e32 f52f 6cb2
00000060: bbe3 1dae c81b 1fb2 302e 502d d6e4 12ad
00000070: 6c2d 622f f127 b1ae 96c1 c8ad 7da7 0031
00000080: 950d 642f f724 852d aca1 f8b0 def5 152e
00000090: 1d5d 6cb0 83c9 3cad e2bb 0f31 9442 6eaf
000000a0: 1113 2e2f 10f9 4f2f aca0 852f 9de1 fcb0
000000b0: c8e0 7e2f ad5a fdb0 6c08 f72e 9cd7 332e
000000c0: 8308 7daf 44c3 8a2c a3a8 33ae 5b63 3f2d
000000d0: c794 e9ae b413 f2b0 947f e930 282b 27b0
000000e0: 23b7 5fb1 fdfa 52b2 81f9 50b2 8ab0 5eac
000000f0: 2100 752c 75d0 2432 bd29 3b2e 8965 702f
-1.3148299e-10 7.545892e-09 1.3991259e-09 3.9786474e-10 3.101256e-11 -2.8759446e-11 -2.1158683e-10 -7.415214e-11
-4.2883364e-09 -1.4491272e-10 -2.1093424e-11 5.146848e-09 5.6725416e-11 4.5640647e-09 4.17438e-09 -3.805462e-09
4.9215982e-09 1.9582597e-10 1.2670086e-08 8.222037e-09 -2.1305209e-10 1.3668932e-11 8.277905e-09 -1.3747912e-08
-3.5899932e-11 -9.261335e-09 1.1833687e-11 -8.349951e-12 2.0570717e-10 -8.056123e-11 -2.2823337e-11 1.8721658e-09
2.0741305e-10 1.5136765e-11 -1.8090325e-09 3.409705e-11 -8.598862e-10 -1.0731307e-11 2.0916038e-09 -2.1669627e-10
1.5831982e-10 1.8915025e-10 2.4306723e-10 -1.8399536e-09 2.3181024e-10 -1.8433944e-09 1.12337556e-10 4.0891387e-11
-2.301324e-10 3.9438747e-12 -4.0849667e-11 1.0879154e-11 -1.06220414e-10 -1.7613417e-09 1.6989241e-09 -6.0815575e-10
-3.2554872e-09 -1.2280677e-08 -1.2163924e-08 -3.1646096e-12 3.4816666e-12 9.593454e-09 4.255595e-11 2.1863945e-10

exp_avg_sq f4 [64]
00000000: 5db5 b423 767a d824 5d53 2224 df45 d923
00000010: 0188 8a20 2009 3d22 ae89 4f23 c5a2 6722
00000020: bf94 9124 ef60 b122 0008 2b22 6b6c a424
00000030: a21f 5f22 d9dc 9724 cf70 8f24 914c 8724
00000040: fd7c 9f24 17e3 6623 ff9b 2625 0473 e724
00000050: a620 fa22 139e a023 a969 e824 4adb 3325
00000060: 1760 ca20 fbaa fe24 1327 8f1f f13f f51e
00000070: 5cae f022 150f 8f23 e955 2622 ce8b 3824
00000080: 2dde be23 de02 1522 6b35 3524 b66f a423
00000090: 0158 0624 6606 0e1e ea0c 4324 b127 3b23
000000a0: 4df5 c422 7b44 6d23 7bbd 1523 5381 3624
000000b0: dcac 1d23 b291 3724 185c ae23 02c2 4c21
000000c0: a369 4123 345f 921e 03d0 f220 d147 3b1f
000000d0: 6aed 7022 d92b 3224 d211 3024 0a83 f023
000000e0: 97c2 7624 d000 2225 dd23 2125 d5eb 9d23
000000f0: 3bec 9c23 cc1e 0325 9d23 fd20 2da5 0d23
1.959245e-17 9.3882525e-17 3.5198762e-17 2.3556779e-17 2.346811e-19 2.5619107e-18 1.1250647e-17 3.1392507e-18
6.313571e-17 4.807858e-18 2.3179057e-18 7.130733e-17 3.0238882e-18 6.585994e-17 6.220747e-17 5.8676626e-17
6.9166997e-17 1.2516413e-17 1.4451058e-16 1.00375125e-16 6.7797204e-18 1.7414182e-17 1.0079296e-16 1.5600073e-16
3.4283718e-19 1.1044459e-16 6.06275e-20 2.596683e-20 6.523674e-18 1.5510479e-17 2.2542676e-18 4.001706e-17
2.0693936e-17 2.0194783e-18 3.9293365e-17 1.7828227e-17 2.913116e-17 7.5187406e-21 4.2294823e-17 1.0145695e-17
5.338563e-18 1.2862297e-17 8.11743e-18 3.95745e-17 8.5475915e-18 3.9805208e-17 1.8904121e-17 6.9374656e-19
1.048492e-17 1.5497726e-20 4.1134045e-19 3.9658195e-20 3.2651751e-18 3.8634738e-17 3.817901e-17 2.607635e-17
5.350757e-17 1.4051535e-16 1.3976675e-16 1.7121853e-17 1.7013601e-17 1.1372873e-16 4.2883434e-19 7.678603e-18

exp_avg f4 [64]
00000000: b101 dcb8 811f f6b8 6124 d2b8 2703 3ab9
00000010: 1e86 18b9 d78f 50b8 073d 7fb9 8c8f 13ba
00000020: 0557 7ab9 652c 4fb8 b736 9fb9 06bf 1436
00000030: 6959 bfb8 6d91 94b8 322b 60b9 3475 03b9
00000040: f596 47b9 aac0 81b9 63eb aab8 9e5c d0b8
00000050: 089c 87b8 72ac 3dba 82b2 a7b8 f42e ffb9
00000060: 5319 d1b8 d51a 2db9 c2d1 f1b7 e051 3eba
00000070: 67c9 aeb8 9742 67b9 44f9 11b9 034c 9fb8
00000080: dac0 99b8 f0c9 87b9 ee4b 3ab9 e751 8f36
00000090: f85c f9b6 7c30 96b8 ef03 73b9 47ae 05ba
000000a0: 3cc4 24b9 8cbc 43b9 2554 fbb8 32d6 02b9
000000b0: a5dc bfb7 af1b 44b9 ec26 cbb8 ebc5 c4b7
000000c0: 0348 a3b9 0d63 00b9 b831 3eb9 e653 feb8
000000d0: 3310 3eb9 1ca8 c9b7 fe93 43b8 05f7 36ba
000000e0: b72a 99b8 afbd c1b8 a93e ffb8 adc2 d8b8
000000f0: 185b 09b9 7ca1 b1b8 0bf4 6db8 8b14 cb37
-0.000104907325 -0.00011736062 -0.000100203564 -0.00017739517 -0.00014545812 -4.9725026e-05 -0.0002434143 -0.0005628995
-0.00023874275 -4.939399e-05 -0.0003036761 2.2164909e-06 -9.124244e-05 -7.0842776e-05 -0.00021378396 -0.00012536795
-0.00019034355 -0.00024748343 -8.150076e-05 -9.935464e-05 -6.466365e-05 -0.0007235474 -7.99643e-05 -0.00048672373
-9.9706136e-05 -0.00016508561 -2.8827115e-05 -0.0007260125 -8.334481e-05 -0.00022054683 -0.00013921136 -7.595869e-05
-7.33153e-05 -0.00025899662 -0.00017766628 4.271267e-06 -7.4316013e-06 -7.161588e-05 -0.00023175751 -0.0005099517
-0.00015713362 -0.00018666888 -0.00011984286 -0.0001247756 -2.287172e-05 -0.0001870233 -9.687044e-05 -2.3457183e-05
-0.00031143436 -0.0001224393 -0.00018138334 -0.00012127291 -0.00018125847 -2.403935e-05 -4.662945e-05 -0.0006979558
-7.303565e-05 -9.2382885e-05 -0.00012171019 -0.00010335944 -0.00013099273 -8.4700965e-05 -5.6732486e-05 2.4209052e-05
