training/CNN_60.onnx (onnx, 141146 bytes, 6 tensors)

fc1.0.weight f4 [128, 128]
000000 dc a5 92 bb f6 29 04 3c 80 dc 8c 3d be 2b 64 3d
       -0.0044753384 0.008066645 0.068779945 0.05570578
000010 e0 bc 90 bc 64 84 2d bc 85 b9 fe bc 24 7f 81 bd
       -0.017668188 -0.010590646 -0.031094322 -0.06323078
000020 7e de 3d 3d b1 3f 76 3c ea a7 71 3d b5 a3 d8 bb
       0.046354763 0.015029834 0.058998026 -0.0066113123
000030 f7 b2 22 bd 4a 2e 82 3d b0 f2 30 3d 8b 67 c5 3d
       -0.039721455 0.06356485 0.043200195 0.0963889
000040 53 f3 7d bd fd 91 84 bd 8b af a1 3c a8 c5 3b 3d
       -0.06199963 -0.064731576 0.019737026 0.045842797
000050 40 6c 86 3d a3 49 19 3d 25 21 30 3b 3d 72 b3 bb
       0.06563616 0.03742374 0.0026875224 -0.0054762647
000060 77 81 08 3c d2 02 aa 3d d5 c6 fb bc b7 00 ca 3a
       0.008331648 0.08301319 -0.030734459 0.001541159
000070 35 4f 8b 3c f0 c2 cd 3d 36 23 81 3c 0a 62 99 3d
       0.017005542 0.10046947 0.01576386 0.074894026
000080 16 29 26 3d 56 2b 86 3d 37 1f c1 3d e3 81 50 bd
       0.040566526 0.065512344 0.09429782 -0.05090512
000090 49 97 10 3a 78 21 fc 3b 60 74 47 3c f9 61 97 bc
       0.00055157073 0.0076944195 0.012173742 -0.018479334
0000a0 94 01 3c 3d 3a 00 9f 3d db 9b a4 3d 73 f9 87 3d
       0.045899943 0.07763715 0.080375396 0.066393755
0000b0 df d8 b9 3d 39 0e ae bb d0 d4 f0 3b 08 50 d9 3c
       0.09074568 -0.005311754 0.007349588 0.02652742
0000c0 35 b3 26 3c 5e 79 2f 3d f4 72 a9 bc 5b 35 80 3d
       0.010174562 0.042840354 -0.020684697 0.06260177
0000d0 86 e7 84 3c 90 f9 7e 3d 89 f6 67 bc 7c 77 58 3c
       0.01622368 0.06224972 -0.0141579 0.013212081
0000e0 24 e9 b9 bc aa d8 6c bd da 8c b0 bd ba b4 b5 3d
       -0.022694178 -0.057823814 -0.08620615 0.088723615
0000f0 a1 c5 be bc fb ff ad 3d 0c 4f df 3c e9 81 d4 3d
       -0.023287596 0.0849609 0.027259372 0.10376341
000100 b6 43 8f 3d 14 61 8a 3d 4d e9 21 bd 47 28 6a bc
       0.06995337 0.067567974 -0.039529134 -0.014291829
000110 91 b0 46 3c 60 54 16 bd 4f 28 48 bd 1d e1 85 3d
       0.012127058 -0.03670156 -0.048866566 0.065370776
000120 3c 15 d8 bc 18 ba 87 3d 93 ac 10 3c 6f 73 0d 3d
       -0.026377313 0.066272914 0.008830207 0.034533914
000130 19 be a6 3d d6 c8 56 3d 6c e7 2c bd 29 64 f1 3d
       0.08141727 0.052437626 -0.04221289 0.11786682
000140 ce 88 b0 3d c4 06 83 bd ee e3 95 bc 5c 59 45 3d
       0.086198434 -0.06397775 -0.018297162 0.048180923
000150 65 57 86 bc ad 8d 2f bc 62 51 76 bd d5 de 8c bd
       -0.016399095 -0.0107149305 -0.060136206 -0.06878439
000160 0f 5e 6e 3d 27 9a ba 3d 97 52 c1 3d bc 01 d5 3d
       0.05819517 0.091114335 0.09439581 0.104007214
000170 0a 20 04 bd df 28 bf bc 58 ec 29 bd 2c f8 5f bc
       -0.032257117 -0.023334919 -0.04148516 -0.013670009
000180 11 c9 39 3d 29 f9 ac 3d ed b1 8b 3d 65 85 7c bd
       0.045357767 0.08445961 0.06821046 -0.061650652
000190 f3 68 19 bd 97 b8 e4 3b d8 67 9e 3d 5b 03 11 3d
       -0.037453603 0.0069800126 0.077346504 0.03540359
0001a0 86 61 ae 3c 7a 73 a2 3d a4 d3 c8 bc 09 c8 08 bd
       0.021286737 0.07932182 -0.02451498 -0.033393893
0001b0 da f2 0e bd aa b4 92 3c 7b 04 e8 bd eb 80 59 bd
       -0.03489957 0.017908413 -0.113289796 -0.05310146
0001c0 58 97 3e bd 61 ce 6b bd 2d 0c 83 bb d5 f0 61 3b
       -0.04653105 -0.057569865 -0.003999254 0.0034475822
0001d0 c6 11 3f 3b 2a a8 8d 3d eb b2 5e bd 8d ec c5 3d
       0.002915488 0.069168404 -0.05436985 0.09664259
0001e0 67 56 bf 3d b3 91 62 3d dd b6 5a 3d 69 e3 c1 3d
       0.09342652 0.05531473 0.05339705 0.09467203
0001f0 74 d9 ec 3d 40 c1 a1 bc b8 87 0b 3d 7c f8 ea 3d
       0.115649134 -0.01974547 0.03406498 0.11473176
000200 3c e9 23 bd 82 9b a9 3c 60 b8 9a 3d 5c 86 c1 bc
       -0.04001735 0.020704035 0.07554698 -0.023623638
000210 05 5b 8a bc a9 92 92 3d 5e 6b b2 bc fd 80 8a bc
       -0.016889105 0.071568795 -0.021779712 -0.01690721
000220 8e e2 68 3d a5 47 c7 bc d4 f3 91 3d 7f 80 3d 3d
       0.056856684 -0.024326155 0.07126585 0.04626512
000230 a6 5f 8f 3d 44 18 41 3d 0e b3 98 bd 01 f5 66 3d
       0.07000665 0.047142282 -0.07456027 0.056385998
000240 d4 df 7a bd bb 34 0a bd cb 2a 0b bd 04 c0 a4 bd
       -0.061248615 -0.033741694 -0.033976357 -0.080444366
000250 a9 46 97 bd d3 ba 77 3b 62 d5 81 bd 80 ba 97 3d
       -0.07386524 0.0037800565 -0.06339528 0.07408619
000260 dc b2 97 bc c4 f0 29 bb 15 46 20 3d 4e 74 2a 3d
       -0.018517904 -0.002593086 0.039129335 0.041614823
000270 be 56 23 bd 6f 5d 46 bd 22 ea 92 bd 32 87 c8 3b
       -0.039877646 -0.04842895 -0.071735635 0.006119632
000280 c2 be 4c bd 96 96 e8 bc 22 90 75 3d bd be c0 bd
       -0.04998661 -0.028392117 0.05995191 -0.094113804
000290 0e 3d 1f bd 1a c7 2b bd 90 b4 de 3c 29 90 3a 3d
       -0.038876586 -0.041937925 0.027185708 0.045547638
0002a0 42 62 2c 3d df 3c 74 3b 67 a5 10 3d c5 c1 cb 3c
       0.042085893 0.0037267727 0.03531399 0.02487267
0002b0 63 ac 0a 3d 22 24 72 bd 53 f2 90 3d a3 bc 6a 3c
       0.033855807 -0.05911649 0.0707747 0.014327201
0002c0 92 57 b7 bd 9b 10 ce bd ca 37 41 bd 01 bd 27 bc
       -0.089522496 -0.10061761 -0.047172345 -0.010237933
0002d0 03 63 58 3d 31 7e f6 3b 06 b9 95 3d d5 32 84 3d
       0.0528288 0.0075223674 0.07310681 0.06455008
0002e0 53 9f a1 bc 81 c6 1b 3c c4 92 1c 3c c1 b2 98 bc
       -0.019729292 0.009507776 0.009556476 -0.018639924
0002f0 f8 22 73 3d c0 a4 85 3b 9f 15 a8 bd 0b 36 a7 bc
       0.05935952 0.0040784776 -0.08207249 -0.020411512
000300 a2 41 bf bd 27 55 a6 bc e0 ac 6e 3d 3f 20 e0 bc
       -0.0933869 -0.020304276 0.058270335 -0.027359126
000310 74 6f a7 bd e6 06 0e bd 11 03 6e 3d 5c 12 4c 3d
       -0.08175555 -0.034674548 0.058108393 0.049822196
000320 06 f8 6b bd db 36 3c 3d 4b f6 3b bd 4b 6d b9 bd
       -0.05760958 0.04595075 -0.04588918 -0.09054049
000330 fa 59 0f 3d 15 6f 66 bd c0 9f 37 bd bb 51 a8 bc
       0.034997918 -0.05625828 -0.044830084 -0.020546785
000340 a6 63 b6 bc 15 43 92 3d 88 a2 68 bd ea d3 a4 bd
       -0.022264313 0.07141701 -0.056795627 -0.08048232
000350 c9 1f 05 bd 13 06 ac bd 25 da 69 bb c5 28 2b bc
       -0.032501016 -0.08399596 -0.0035683003 -0.010446732
000360 76 98 a7 3d 1f f2 fa 3b 83 03 47 3d 0b aa 17 3d
       0.081833765 0.0076582576 0.048587333 0.0370274
000370 1d 0d c9 bd 3f cf cc 3c 4c ce 94 bc 55 09 9c 3d
       -0.09816954 0.025001166 -0.018164776 0.076189674
000380 7e ce 99 bd 21 57 84 bd ef e9 c0 bd 66 2e 4a bd
       -0.075100884 -0.06461931 -0.09419619 -0.049360655
000390 ad d0 58 bd f7 83 3d 3d 11 80 51 3d dd 9f f3 bc
       -0.052933384 0.04626843 0.051147524 -0.029739315
0003a0 8c 2a 9e 3d 54 78 57 bd 75 80 83 bd 31 30 c5 3c
       0.07722959 -0.05260499 -0.064209856 0.024070831
0003b0 27 4d 27 3c ff f8 d1 3c e5 53 59 bd cc 03 a9 bd
       0.010211266 0.025631426 -0.053058524 -0.08252677
0003c0 6d c4 30 bc 89 c1 41 3d 9e 37 e0 3c e4 77 2d bc
       -0.010789019 0.04730371 0.02737027 -0.010587666
0003d0 19 6d bd bd ba c7 ed bc f4 80 a7 bd 85 07 8d 3d
       -0.09249324 -0.029025901 -0.08178893 0.068862
0003e0 b3 c5 1d 3c aa c2 8f bd 45 34 3e 3d ff fc 87 3d
       0.009629655 -0.07019551 0.046436567 0.06640052
0003f0 7a 57 96 bd 9a d8 c6 3c 47 b3 8c bd 60 c8 bb bd
       -0.073409036 0.024273206 -0.06870132 -0.09169078

fc1.0.bias f4 [128]
000000 fa 88 5d bd 46 5e 6d 3c 9e 66 c0 bd 12 65 00 3e
       -0.05408571 0.014487809 -0.09394573 0.12538555
000010 9b 50 9e 3d 6a a0 83 bd b5 6e 54 bb 62 3a 13 3e
       0.07730218 -0.06427081 -0.003241462 0.1437774
000020 86 13 bd bc 36 17 65 bd fa 78 e9 bd 89 e4 85 bd
       -0.023080599 -0.05593034 -0.114000276 -0.0653773
000030 9d 8c 03 3e 12 90 c2 3b 0e a0 a5 bd 21 4b 65 bb
       0.12846608 0.0059375847 -0.08087169 -0.0034987407
000040 d6 03 e7 bd 3b 8a 62 bd 36 12 12 3d 51 cd b8 bd
       -0.112800285 -0.055307608 0.0356619 -0.09023536
000050 39 17 cb 3c e4 70 de 39 6f ec d1 3d f3 69 0e 3e
       0.024791347 0.0004242725 0.10250174 0.13907604
000060 cb fd 1b be d3 68 fb 3d a9 6e 32 bd 6a 68 f4 3d
       -0.15233533 0.12275853 -0.043562565 0.11933978
000070 06 f1 ae 3d 56 75 15 be b4 58 f5 3d 4a aa ff bb
       0.08542065 -0.14595541 0.119798094 -0.0078022825
000080 27 78 01 be 31 7a af 3d 9c 86 a2 bd 66 19 85 3b
       -0.1264349 0.08568228 -0.07935831 0.0040618656
000090 c7 13 d7 bd 81 4e e2 3c d4 84 1c bc 5e 01 42 3c
       -0.10501819 0.027625324 -0.009553153 0.011841146
0000a0 b3 22 32 3d 6f 21 40 3d 36 0e 4a 3c 94 19 9d bd
       0.043490123 0.046906885 0.01233249 -0.07670894
0000b0 9c 79 62 bd 1c e8 fa bd 3c d7 1c bd a2 f8 1f 3e
       -0.055291757 -0.122513026 -0.0382912 0.1562219
0000c0 86 17 b1 3c 98 63 e3 bd c7 bc bb 3b 07 b2 79 bd
       0.021617662 -0.111029804 0.005729291 -0.060960796
0000d0 b6 b9 a8 3d ab ef 19 3e e2 e7 8b 3d 23 82 17 3e
       0.082385466 0.15032832 0.068313375 0.14795737
0000e0 e7 00 34 3d 00 c8 f6 3d 7f f8 d6 3d 51 ce ee 3d
       0.043946173 0.12049866 0.104966156 0.116604455
0000f0 ff e6 e0 3c 32 f8 fb 3d ab 42 c6 bd ac fd 08 3d
       0.027453898 0.12303199 -0.09680685 0.033445045
000100 57 d5 02 3e ba a6 56 bd 14 35 f0 bd 09 ec 43 bc
       0.12776695 -0.052405097 -0.11728874 -0.011958131
000110 c8 63 4b 3d 73 0e be 3d 8b 06 60 3d 5f 1e ca 3d
       0.049655706 0.092801 0.05469374 0.09869074
000120 85 a6 7d 3c ec 4f 9c 3d a9 2d ac bc cb 80 a8 bd
       0.015481596 0.076324314 -0.021017866 -0.0822769
000130 4a d3 de 3d 2c ae f7 3d 08 f0 97 bd 46 0d 72 bb
       0.10880144 0.120937675 -0.07418829 -0.003693418
000140 11 e1 9f b9 03 14 c0 bc b5 d2 3a 3c ec 36 e2 3c
       -0.0003049453 -0.023447042 0.0114027755 0.02761408
000150 cd 23 ec bd a5 78 b3 bd 82 2a eb 3c 47 43 e2 bd
       -0.11530266 -0.087632455 0.028706793 -0.110479884
000160 96 c2 fe bd d8 37 c7 3d cf 1a 26 3e ab 91 eb 3b
       -0.12439458 0.09727448 0.16221164 0.007188996
000170 2c e1 f2 3d 1a 84 e6 bd 55 06 91 bd e7 99 d9 3d
       0.118593544 -0.11255665 -0.07081286 0.10625058
000180 5c 82 d4 bd 71 44 f3 3d f4 08 de 3d c6 9f 56 bb
       -0.103764266 0.118782885 0.108415514 -0.003274904
000190 92 ad 2d 3d 98 5d 2d be 6e 6b a1 bd 66 b9 ef 3c
       0.042401858 -0.16930234 -0.07881819 0.02926321
0001a0 18 84 0c 3e d8 04 07 3d 7d 67 f2 bd 37 8e 86 bc
       0.13722265 0.032963604 -0.11836145 -0.016425235
0001b0 f2 d4 c9 bd 13 2a 6b 3c 43 b9 9a 3b 82 a0 89 3d
       -0.09855069 0.014353293 0.004721792 0.067200676
0001c0 f3 f2 26 bd ef 72 46 3d a9 f5 0a 3e 42 5b 75 bd
       -0.04075904 0.048449453 0.13570274 -0.059901483
0001d0 a9 24 08 3c 1b b7 00 3d 9b 84 56 bd de bf af bd
       0.008309522 0.031424623 -0.052372556 -0.08581518
0001e0 2a 1b ce bc 40 30 3f bd c4 f1 2c 3c 98 88 19 bc
       -0.025159437 -0.046676874 0.010555688 -0.009370945
0001f0 95 21 d9 3d 98 95 03 3b 8f 0b 0c bd 67 2c 00 be
       0.106021084 0.0020078178 -0.03419071 -0.12516938

fc1.3.weight f4 [2, 128]
000000 8f dd 73 3b a9 56 ce b9 1b 19 0a bd c8 1f f9 3d
       0.0037210917 -0.0003935595 -0.03371535 0.12164265
000010 90 e4 02 3e 41 93 bf bd 78 47 a0 3d ed 25 d0 3d
       0.12782502 -0.09354258 0.078261316 0.10163484
000020 9a 41 fa bd e8 2e 05 3d ff e2 ee bd 9a ca 02 3d
       -0.12219544 0.032515436 -0.1166439 0.031931497
000030 34 1a 06 3e 82 5e be 3c b9 df 8c bd 50 6e f2 3c
       0.13095933 0.023238424 -0.06878609 0.029593617
000040 6b 58 8a bd 67 20 23 bd ed bc 14 3e 7f 99 74 bd
       -0.06755146 -0.039825823 0.14525194 -0.059716698
000050 ec f2 1d 3c f3 6c 9d 3d 83 bb b4 3d 64 21 8b 3d
       0.009640437 0.07686796 0.088248275 0.06793478
000060 6e c8 99 bd 28 57 ba 3d f5 b1 0d bb b5 96 11 3e
       -0.07508932 0.09098655 -0.0021620963 0.14217646
000070 1b 15 2a 3e d7 15 a1 bd 3c 12 a8 3d a1 1f 9b 3d
       0.16609614 -0.07865494 0.08206603 0.07574392
000080 85 0b b6 3c 1b b9 d0 3d 98 aa b3 bd eb b8 92 bd
       0.02222229 0.10191556 -0.087727726 -0.071641766
000090 66 07 2c bd c6 64 ac bd ff 6a 84 bd c8 17 28 3d
       -0.041999243 -0.084176585 -0.064657204 0.041038305
0000a0 a7 ac 0a 3d 17 39 02 3e 34 5f 19 bd 59 36 75 bc
       0.03385606 0.1271709 -0.03744431 -0.014966571
0000b0 20 16 ce bd e1 82 0d be ee 1f e5 bd 55 a0 60 3d
       -0.10062814 -0.13819458 -0.11187731 0.054840405
0000c0 46 7b 95 3d bd cf d2 bc 29 82 86 bc 4d 5c c4 3c
       0.07298903 -0.025733823 -0.016419487 0.023969794
0000d0 71 89 17 3e fb bc bd 3d e9 de d6 3d e2 cd 83 3d
       0.14798523 0.09264561 0.104917355 0.064357534
0000e0 a3 b1 fa 3d 42 c8 c6 3c 58 74 72 3d ed b2 94 3d
       0.12240913 0.024265412 0.059192985 0.0726069
0000f0 c6 bc e5 3d 96 d2 1b 3e 98 91 33 bd 16 cb e1 3d
       0.11217646 0.15217051 -0.04384002 0.11025064
000100 7c dd 17 3e 0c b4 cb bc 01 10 1e be 77 d3 e0 3d
       0.14830583 -0.024866126 -0.15435793 0.10977834
000110 9a cb 0f 3e 10 05 1e 3e 96 f8 03 3d 4a 3c 1d 3e
       0.14042512 0.15431619 0.032219492 0.1535503
000120 db bf 32 bd 91 86 15 3e ca 37 8e bd ba b1 0f be
       -0.04364 0.14602114 -0.06944235 -0.14032641
000130 f6 f7 08 3e 77 23 c1 3d 8a 19 e8 bd 3b f2 38 bc
       0.1337584 0.094305925 -0.11332996 -0.011288221
000140 88 0f 1c bc c0 b0 95 3d cc 9d 7e bd 3a 0f ad 3d
       -0.009525187 0.07309103 -0.062162206 0.0845017
000150 90 b9 d5 bd 86 f0 ba bd dd 98 d0 bc 4c 7b 1d bd
       -0.10435784 -0.091279075 -0.025463516 -0.038447663
000160 78 dd b4 bd 36 d8 c1 3d 4c 4d 0e 3e c7 8e cc bc
       -0.08831304 0.09465067 0.13896674 -0.024970425
000170 15 ce 0b 3e 00 20 1d bd 4f 17 a9 3c 49 2e f9 3d
       0.13652833 -0.038360596 0.020640997 0.12167031
000180 c1 77 83 bd d6 98 1f 3e 47 f3 af 3d d4 a8 9c bd
       -0.064193256 0.15585646 0.08591323 -0.07649389
000190 60 ac fa 3d cb 88 90 bd 13 30 07 be a2 ae 73 bd
       0.12239909 -0.07057341 -0.13201933 -0.059492715
0001a0 af fb ac 3d b7 8e a4 3c e1 86 e9 bd bc 52 bc 3d
       0.08446442 0.020087583 -0.11402679 0.09195468
0001b0 14 f1 e0 bb 69 75 83 bd 2c c4 b6 bd de db 2a 3e
       -0.0068646763 -0.064188786 -0.089241356 0.16685435
0001c0 0b 99 c6 bb b8 c9 d9 3c e9 44 9b 3d ee 86 16 bc
       -0.0060607246 0.026585445 0.07581503 -0.009187443
0001d0 fe f9 49 bd aa a3 83 3c 9d 18 b6 bd 9a 11 10 be
       -0.049310677 0.016069252 -0.08891413 -0.14069214
0001e0 88 de 73 bc 74 90 dc bd 01 bd cc bc 23 24 a5 bd
       -0.014884599 -0.1076974 -0.024992468 -0.08063533
0001f0 5d 07 06 3e 75 01 ba 3d cf c2 18 3c 41 2c 89 bd
       0.13088746 0.09082309 0.00932379 -0.06697894
000200 71 20 98 3d 8a 39 ea bc 40 ed ac 3d 09 f9 dd 3c
       0.07428063 -0.02859189 0.08443689 0.027096288
000210 ad 4b e5 bd e6 2c 3c 3d 78 0a b6 bd 6d d4 9b bd
       -0.11196075 0.045941256 -0.088887155 -0.076088764
000220 dd 56 33 3d d1 b3 15 3d a2 44 03 3e ca 24 90 3d
       0.04378401 0.03654844 0.1281915 0.07038267
000230 78 33 00 bd e2 da 05 be a9 fa 84 3d b1 dd da 3d
       -0.031299084 -0.13071778 0.06493122 0.106868155
000240 a3 53 84 3d 6b d5 f5 3d 65 45 b9 bd 3d e8 8a 3c
       0.06461265 0.12003597 -0.09046439 0.016956443
000250 53 41 85 3d 7d a5 37 3c ff eb 90 bd 0a e1 20 be
       0.065066 0.011208889 -0.07076263 -0.15710846
000260 74 3f ae 3d 98 a1 b6 bd 48 e3 37 bd 40 2a ed bd
       0.085081965 -0.0891754 -0.044894487 -0.11580324
000270 18 1f 11 be 51 23 03 3e d0 79 a8 bd b5 25 38 3c
       -0.14172018 0.12806441 -0.08226359 0.011239459
000280 55 fe a4 3d be ac c5 bd 4e 75 a1 3c 36 9a 84 3c
       0.080563225 -0.096520886 0.019709256 0.016186815
000290 e3 c7 c6 3c f7 c1 c9 bc 16 29 30 bd bd db ca 3c
       0.024265235 -0.024628622 -0.043007933 0.024762983
0002a0 7f 2e 83 3d 1f 59 34 bd aa 73 1f 3b ac c7 a1 3d
       0.06405353 -0.044030305 0.0024330416 0.078994125
0002b0 67 f1 db 3d ba 52 2f 3d 73 94 e0 3d a4 53 12 be
       0.10739403 0.042803504 0.109658144 -0.14289719
0002c0 18 0d 0a 3d a2 a9 aa 3d 4f 95 76 bd be bb ed 3c
       0.033703893 0.08333136 -0.060200986 0.029020187
0002d0 ca b3 d0 bd 30 85 05 be 48 2e db bd b2 7c 77 bd
       -0.10190542 -0.13039088 -0.10702187 -0.060421653
0002e0 4f e9 14 be 15 08 11 be 9d 72 73 bd 8e 46 b9 bd
       -0.14542125 -0.1416324 -0.059435476 -0.0904666
0002f0 f6 89 ec bc cb dd 5c bd 3d a3 01 3e c7 51 9f bd
       -0.028874379 -0.053922456 0.12659927 -0.0777927
000300 a5 e6 07 3c 10 8c a0 3d fe 40 04 bc 37 5e ea bd
       0.008294736 0.07839215 -0.008072136 -0.11443751
000310 4f 6a 1d be 4f 25 93 bd 67 9b 08 be ba 96 96 bd
       -0.15372585 -0.071848504 -0.13340531 -0.073529676
000320 c9 a5 ba 3d 35 1a c2 bd df ac 27 3d 0f 31 f2 3c
       0.09113652 -0.09477655 0.040936347 0.029564409
000330 33 70 ab bd 05 5c fb bd 77 fd b0 3c 79 34 88 3d
       -0.0837101 -0.12273411 0.021605236 0.06650633
000340 05 38 b8 bd 6c af bd 3d 8f 0e 58 3d b1 3d 87 3d
       -0.0899506 0.09261975 0.05274826 0.066035636
000350 aa cd dd 3d a7 84 95 3c 22 e3 84 3d 1b 76 00 3e
       0.10830243 0.01825173 0.06488635 0.12545054
000360 03 7e 26 3d 54 b8 77 bd b8 90 ac bc b3 9c cd bd
       0.040647518 -0.060478523 -0.021065101 -0.10039654
000370 eb ad 0d be e6 4c c5 3c ec 61 e4 3d b0 69 b9 bd
       -0.13835876 0.02408452 0.111514896 -0.090533614
000380 3d b9 f1 bc 5f 80 ed bd bb ce fe bd bc ca 30 bd
       -0.029507274 -0.115967505 -0.124417745 -0.043162093
000390 fe 56 ca bd a8 dc 76 3d 47 c4 56 3c d7 d5 f2 3c
       -0.09879874 0.060269028 0.01310832 0.029642982
0003a0 64 b5 94 bd e0 78 99 3d 39 43 5e 3d b5 cc 88 bd
       -0.0726116 0.07493758 0.054263327 -0.0667967
0003b0 ec 21 1a 3e 93 91 37 3d ef 4e 40 3c 33 cd be bd
       0.15052003 0.044816565 0.011737569 -0.093164824
0003c0 bc c0 b3 3d e6 ba 44 3d 59 50 18 be b1 73 0d bd
       0.087769955 0.048029803 -0.148744 -0.03453416
0003d0 3e 82 6a 3d b4 2d d0 bd c8 d1 db 3d 34 c4 71 3d
       0.057253115 -0.10164967 0.10733372 0.059025005
0003e0 99 48 a5 bd 8b 2c b4 3d 02 a9 ba 3d 46 ec d1 3d
       -0.080704875 0.087975584 0.09114267 0.10250144
0003f0 c7 a5 16 be d0 23 3a bd b5 92 83 bc 6d 43 c7 3d
       -0.14711677 -0.04544431 -0.016061166 0.09729657

fc1.3.bias f4 [2]
000000 09 ea ab bc 68 bc 1c bd
       -0.02098562 -0.038265616

onnx::Conv_30 f4 [64, 60, 3]
000000 ee 2b 74 3c 6b 4d 22 3c 9a 9e 2d bc 46 d7 fb bb
       0.014903052 0.009906153 -0.010596896 -0.0076855747
000010 b0 44 b4 bb d6 e9 a8 ba eb 72 f4 3b a1 db 98 3a
       -0.0055013523 -0.0012887071 0.0074599884 0.0011662134
000020 8c 83 1f 3c 7a 21 3f bc f2 e9 21 3c b8 98 52 bc
       0.009735953 -0.011665696 0.009882437 -0.012853794
000030 c8 f5 60 bc 20 30 37 3c 90 0f 3c bc ad 0e b8 bb
       -0.013730474 0.0111809075 -0.01147832 -0.005616984
000040 dd f0 36 3c cd f0 31 bc fd 20 4b 3c 0a 27 e5 3a
       0.011165825 -0.010860634 0.012398002 0.0017482948
000050 bc ac 4d bc 74 1d 0e bc 7a f1 82 3c 9d 56 b9 3b
       -0.01255339 -0.008674014 0.015984286 0.005656077
000060 9d 80 36 3c fa 5a 0a 3c ba 24 26 bc 39 3b ff bb
       0.011139062 0.008444542 -0.010140592 -0.0077890423
000070 60 2f 68 3a 21 eb 27 bc e6 57 92 3b e8 1c 81 3c
       0.0008857157 -0.01024893 0.0044660447 0.015760854
000080 12 fe a6 bb 7e 02 73 bb b8 ee f4 bb 72 e4 c1 3a
       -0.0050962055 -0.0037080343 -0.0074747466 0.0014792813
000090 db 82 15 bc c7 1c 24 3b 6a a0 50 bc d9 14 84 3a
       -0.009125437 0.0025041567 -0.012733558 0.0010077014
0000a0 1f f9 37 3c 1a 22 87 ba e4 56 5a ba 25 f5 b7 3b
       0.011228829 -0.0010309846 -0.0008328988 0.0056139403
0000b0 9d c7 72 3b 90 09 23 bc 0d 09 da bb 47 d8 06 bc
       0.0037045248 -0.00995101 -0.006653911 -0.0082302755
0000c0 1d 01 26 3c 53 e7 8d 3a c3 25 6b bc e3 06 85 bb
       0.010132101 0.0010826386 -0.014352265 -0.004059659
0000d0 88 ce 7c 3c 8e b1 d5 ba f9 74 b6 bb 27 b7 17 3c
       0.0154301 -0.0016303526 -0.0055681434 0.0092599755
0000e0 56 37 45 3b 72 e6 f1 3b 8d 10 9b bb bb 93 70 bc
       0.0030092797 0.0073822076 -0.0047321976 -0.014683659
0000f0 8f 35 f3 3b f2 f5 18 bc 33 ee 81 bc 6f d2 98 bb
       0.007422156 -0.009335982 -0.015860653 -0.0046637575
000100 e4 b4 a6 3b 05 2a 6c 3b 53 6b df 3a 3a 90 d7 3b
       0.005087482 0.0036035788 0.0017045535 0.0065784724
000110 6e e7 ad bb 90 29 0a 3c c9 b8 a2 3b 9b 53 2e 3c
       -0.0053071296 0.008432761 0.0049658758 0.01064005
000120 0b b3 a6 bb ed 8c 38 3c 83 46 33 3a 87 b9 ba 3b
       -0.0050872616 0.011264068 0.0006838815 0.005698386
000130 47 78 dd 3b 9e d1 11 3a 9e 8d b6 3b 4a ad a7 b9
       0.006758723 0.00055625464 0.0055710813 -0.00031981833
000140 71 f1 96 bb 8d 8a 28 3b 0e 33 7b bb f0 0f 0e bc
       -0.004606419 0.0025717348 -0.0038329992 -0.008670792
000150 a0 7e ae 3a dc ab 03 bb d9 a3 15 3c b3 a2 37 3b
       0.0013312884 -0.002009145 0.009133303 0.002802056
000160 53 cb ad 3b 62 da 27 bc e0 c8 95 bb 83 68 e4 ba
       0.005303779 -0.010244938 -0.0045710653 -0.0017426166
000170 f4 a6 0a bc ba 8e a7 b9 29 21 be 3b db a9 2a 3c
       -0.008462656 -0.00031959062 0.005802293 0.010416473
000180 05 fe dd bb ec cf 06 3c 46 bd 23 bb 12 ee 14 3c
       -0.0067746663 0.008228283 -0.0024984642 0.0090899635
000190 6c 93 80 3c c2 dd 8a 3b 46 15 e8 bb 43 f5 37 3c
       0.015695296 0.0042378614 -0.007082614 0.011227909
0001a0 eb 3e 63 3b 07 6d 01 3c 3a 5c 96 39 9d 76 ce 3b
       0.0034674953 0.007899529 0.00028678944 0.006300761
0001b0 78 97 33 bc bb 3d ac 3a 18 72 cb 3b 08 e1 70 3a
       -0.010961406 0.0013140956 0.0062086694 0.00091888057
0001c0 6d 8c 3c bc bf d4 ef 3b 4f 09 8a bb a4 59 17 3b
       -0.0115080895 0.0073190625 -0.0042125355 0.0023094201
0001d0 be c5 db 3b 2f d7 cb bb 66 35 fd ba d4 a1 13 3c
       0.0067069223 -0.0062207202 -0.0019318282 0.009010751
0001e0 8e bd 0e 3c 99 1e c0 3a f6 60 39 3b e0 c9 e0 3b
       0.008712186 0.0014657556 0.0028286553 0.006860003
0001f0 7f 89 e4 3b 61 21 54 39 b5 a3 0c bc 45 4c 4c 3c
       0.0069743986 0.0002023033 -0.008583953 0.012469356
000200 f9 79 ce bb 07 15 83 bb 4f 9e 00 3c 8a 35 a7 ba
       -0.0063011614 -0.0040003094 0.007850244 -0.0012757045
000210 8e e7 0d bc 1e 51 70 bb 54 d2 9f 3b dc fa b9 bb
       -0.008661164 -0.0036669443 0.004877368 -0.0056756567
000220 83 50 00 3c df de 87 3b 2b 71 b6 bb 60 30 ff bb
       0.0078316955 0.0041464414 -0.00556769 -0.007787749
000230 ef 1f 88 ba c2 71 97 bb a6 37 de 3b dc 05 b1 3b
       -0.0010385494 -0.0046217153 0.006781536 0.00540231
000240 1e d1 83 bb 22 5d 24 3c f8 76 11 3c a7 9c fd 3b
       -0.0040227314 0.01003197 0.008878462 0.0077396217
000250 32 29 51 3c 5a 93 aa b9 4c 77 e2 3b 50 8b 98 bb
       0.012766169 -0.00032534712 0.006911194 -0.004655279
000260 bc 4d 37 bb b7 09 92 3a 25 59 20 bb c7 d0 3b ba
       -0.0027969917 0.0011141811 -0.0024467197 -0.0007164594
000270 67 29 5a bb d1 b8 04 bc 46 8b 24 3b 41 23 69 3c
       -0.0033288838 -0.008100704 0.0025107428 0.014229597
000280 d0 7c a9 bb 07 79 c0 bb 42 3e e5 bb 1c b7 3d 3c
       -0.0051723495 -0.0058738026 -0.006995947 0.011579301
000290 30 92 f7 bb 26 fa dc bb 1f 6f 36 3c 60 17 0d bc
       -0.0075552687 -0.006743687 0.011134892 -0.00861153
0002a0 4e 80 cc bb 45 a9 d0 ba 99 0d c8 3b 8a e4 61 bb
       -0.006240881 -0.0015919587 0.0061051366 -0.0034468495
0002b0 ac 40 79 3a 2c e9 a7 3b b0 a9 91 3b 4a 83 a6 3a
       0.0009508233 0.005124232 0.004445277 0.0012703922
0002c0 6f 3e 9c bb ba 1e 2e 3c c8 04 0d 3a 82 19 e8 39
       -0.004768185 0.010627443 0.00053794356 0.00044269493
0002d0 1e 43 85 3b 43 44 72 bc c6 8d 25 bc c9 6d 26 bc
       0.004066839 -0.014786783 -0.010104602 -0.010158011
0002e0 1a d3 34 3c 1b a0 15 3b 76 53 9f bb 03 50 63 3b
       0.011036659 0.0022831026 -0.0048622442 0.0034685142
0002f0 82 f3 09 bc 30 cb 97 bb a5 d9 ef 3b 53 d5 d5 3b
       -0.008419873 -0.004632376 0.0073196464 0.0065256744
000300 88 1e 15 bc 28 11 d0 3b d4 61 08 bc 43 81 03 bc
       -0.0091015175 0.0063497014 -0.008324105 -0.008026424
000310 a9 da 73 bb ff 2e de 3b 00 05 68 bc b1 ae 0e 3b
       -0.003720919 0.0067805047 -0.014161348 0.0021771605
000320 e2 c1 87 bc 9e fb 15 bc b5 bc 8a bb 4b 7f 88 3b
       -0.016571943 -0.0091542285 -0.0042339214 0.004165565
000330 b5 a1 94 bb b9 98 0f 3c 20 84 4c bc 9c 66 e1 3b
       -0.0045358785 0.008764439 -0.012482673 0.006878687
000340 35 57 b5 bb 94 09 22 bc fb 16 89 3b a7 25 ec bb
       -0.0055340775 -0.009889979 0.0041836477 -0.007206637
000350 6e f4 79 bc 7d 5c 0c bc 46 d2 0e bc 2c fc cc bb
       -0.0152560305 -0.008566973 -0.008717125 -0.006255647
000360 7e 5c f2 bb 82 e8 ec 3b 06 8b a6 3b cc df 2d 3c
       -0.00739628 0.0072298655 0.005082491 0.010612439
000370 2f 7e e6 ba 71 fa 64 3b 0a d0 88 3b dd c1 47 3b
       -0.0017585213 0.0034939314 0.004175191 0.0030480542
000380 09 39 01 3c ce cd 33 bc 88 5e 1b bc b0 91 ce 3a
       0.007887133 -0.010974361 -0.009482987 0.0015759971
000390 56 f8 46 3c 50 13 03 3b c0 e6 3e 3c 32 95 1e bc
       0.012144169 0.0020000525 0.011651695 -0.009679126
0003a0 fd 8d 6a bc 94 a3 b3 3b 83 b5 92 3b 98 97 87 bb
       -0.014316079 0.0054821465 0.0044772043 -0.0041379444
0003b0 e9 fe 1e bc 69 46 6f 3b db c6 35 3c 15 6b d5 bb
       -0.00970433 0.0036510474 0.011094774 -0.0065130093
0003c0 f1 9b 27 3c 23 78 0e bc 52 01 6e bc 93 2b 51 3c
       0.01023005 -0.008695635 -0.014526682 0.012766737
0003d0 4e 77 a8 39 56 d0 de 3b e6 e7 ba 3b 1a de 2d 3c
       0.00032132346 0.006799738 0.005703914 0.010612035
0003e0 15 92 17 3c 93 d2 30 3c 8a d0 84 bb fb 79 8a bc
       0.009251137 0.010792392 -0.00405318 -0.016903868
0003f0 fd cf bf 3b 88 9f 64 bc 42 08 e3 bb 15 f6 ab 3b
       0.0058536516 -0.013954051 -0.0069284746 0.005247841

onnx::Conv_31 f4 [64]
000000 5c c6 57 bd 00 bc 9e bd ce 68 95 bd 7e 16 c5 bd
       -0.052679405 -0.07750702 -0.072953805 -0.09623431
000010 22 ad 67 bd 30 08 b6 bd 1e 25 f8 3d 64 9a e0 bd
       -0.056561597 -0.088882804 0.121164545 -0.10966948
000020 20 8f b1 bd 32 9e ab bd 95 f1 a3 bd 4e 06 66 bd
       -0.08669877 -0.08379783 -0.080050625 -0.056158356
000030 75 7f 80 bd 59 a1 3c 3e eb 6b 73 bd 8b 1b bb bd
       -0.062743105 0.18420924 -0.05942909 -0.09136113
000040 05 a8 91 3d 7a 4b 71 bd 3e 04 a6 bd 28 2c a7 bd
       0.07112125 -0.05890987 -0.08106278 -0.08162719
000050 25 84 68 bd 5c 81 99 bd da 4d 88 bd 1c f1 82 bd
       -0.056766648 -0.074953765 -0.06655474 -0.06393644
000060 80 51 ac bd 99 6b 3d 3e b6 f3 db bd 21 03 a0 bd
       -0.084139824 0.18498076 -0.107398435 -0.07813097
000070 bc 6b bc bd 1a c2 39 3e ca 68 bf bd 3a 51 e7 bd
       -0.09200236 0.1814045 -0.09346159 -0.112947896
000080 2b 5a 77 bd e4 47 12 3e 41 81 22 3e 80 fb d1 bd
       -0.060388725 0.14285237 0.15869619 -0.10253048
000090 4c 05 24 bd 96 58 83 bd a7 2f c0 bd 26 79 1a bd
       -0.040044114 -0.06413381 -0.09384089 -0.037713192
0000a0 95 6a 98 bd e7 c3 75 bd 68 ef 95 bd 4e f5 cb bd
       -0.07442204 -0.06000128 -0.07321054 -0.099588975
0000b0 0c 90 87 3d 49 d1 ba bd 4a 56 ce bd 12 d3 b0 bd
       0.06619272 -0.09121949 -0.10075052 -0.086340085
0000c0 01 6c b0 bd e2 9f 85 bd 0f 52 1b 3e 8a ed a4 bd
       -0.0861435 -0.06524636 0.15168022 -0.080531195
0000d0 bf 91 c4 bd c1 b1 b3 bd 01 d7 d6 3c 56 6b 24 3e
       -0.09598111 -0.08774138 0.026225569 0.1605657
0000e0 24 1d b0 bd 3b 0d ff 3d 54 0e a8 bd 6f aa 31 3e
       -0.08599308 0.124536954 -0.08205858 0.17350172
0000f0 e6 8a bb bd 72 2f ba bd 84 39 f0 bd 79 1e cd 3d
       -0.09157352 -0.09091081 -0.1172972 0.10015578
