training/checkpoints/fold_1/best-checkpoint.ckpt (torch, 357010 bytes, 26 tensors)

conv1.0.weight f4 [64, 60, 3]
000000 23 eb aa 3d a3 38 63 3d a8 10 73 bd 77 49 30 bd
       0.0834563 0.055473935 -0.059342057 -0.04303881
000010 8d 5f fc bc 00 7a ec bb d4 1c 2b 3d c3 ff d5 3b
       -0.03080728 -0.007216692 0.04177554 0.0065307333
000020 39 51 5f 3d 4f ca 85 bd 60 ad 62 3d 8c 6a 93 bd
       0.05452082 -0.06532728 0.055341125 -0.071980566
000030 77 78 9d bd fa 3a 80 3d 2d a4 83 bd c3 d6 00 bd
       -0.076889925 0.06261249 -0.064277984 -0.031454813
000040 b2 0e 80 3d 51 1d 79 bd 59 30 8e 3d bd 67 20 3c
       0.06252803 -0.060818974 0.06942815 0.009790358
000050 91 f8 8f bd 8d f5 46 bd a0 51 b7 3d 51 bc 01 3d
       -0.07029832 -0.04857402 0.089511156 0.031673733
000060 3d 80 7f 3d 19 b2 41 3d 41 99 68 bd 06 a9 32 bd
       0.062378157 0.047288988 -0.05678678 -0.043618225
000070 2b 87 a2 3b 69 15 6b bd f6 e0 cc 3c a1 c1 b4 3d
       0.004959961 -0.057393465 0.025009613 0.08825994
000080 88 c9 e9 bc ef 1a aa bc 7d 73 2b bd 2f b9 07 3c
       -0.02853848 -0.020764796 -0.041858185 0.008283897
000090 4a 50 51 bd 55 c1 65 3c 89 09 92 bd 8a e9 b8 3b
       -0.05110196 0.014023145 -0.07130725 0.0056430744
0000a0 ac c7 80 3d 49 2f bd bb 0e d6 98 bb e4 c4 00 3d
       0.062880844 -0.005773459 -0.004664189 0.03143777
0000b0 b8 f1 a9 3c 09 40 64 bd 91 9f 18 bd ee c7 3c bd
       0.020745143 -0.05572513 -0.03726155 -0.046089105
0000c0 66 67 68 3d c6 a9 c6 3b 09 9a a4 bd 64 3c ba bc
       0.056739233 0.006062719 -0.080371924 -0.022733875
0000d0 8b f6 b0 3d 87 95 15 bc f1 6f ff bc 4c 66 54 3d
       0.08640774 -0.009129888 -0.031181308 0.05185537
0000e0 cd 0c 8a 3c 1a 54 29 3d a5 16 d9 bc 01 67 a8 bd
       0.016851807 0.04133997 -0.026500056 -0.082227714
0000f0 ae 3e 2a 3d 9b 24 56 bd a3 e6 b5 bd e3 f2 d5 bc
       0.041563682 -0.052281003 -0.08881881 -0.026116794
000100 15 63 e9 3c 37 50 a5 3c 59 64 1c 3c 98 e4 16 3d
       0.028489629 0.020179851 0.009545409 0.036839098
000110 9d 76 f3 bc ec 6c 41 3d f3 ce e3 3c 0e 0e 74 3d
       -0.029719645 0.047223017 0.027808642 0.059583716
000120 7f 60 e9 bc 23 2f 81 3d b5 fb 7a 3b c1 b4 02 3d
       -0.028488396 0.06307819 0.0038297002 0.03191066
000130 05 07 1b 3d f9 24 4c 3b 72 92 ff 3c d6 be ea ba
       0.03784849 0.0031149967 0.03119776 -0.0017909657
000140 81 51 d3 bc 99 f4 6b 3c 83 d6 af bc a1 e2 46 bd
       -0.0257957 0.014401578 -0.021464592 -0.048555974
000150 49 4a f4 3b 8f 56 38 bc 7b 7e 51 3d 2e 8b 80 3c
       0.0074551445 -0.011251106 0.05114601 0.015691366
000160 44 4f f3 3c f8 fd 6a bd 51 b2 d1 bc 5f e2 1f bc
       0.029700883 -0.05737111 -0.025597723 -0.009758561
000170 77 1c 42 bd 0c 94 ea ba e4 16 05 3d 38 ed 6e 3d
       -0.047390427 -0.0017896905 0.032492533 0.0583317
000180 a3 64 1b bd 3c bc 3c 3d a1 3b 65 bc ff 7f 50 3d
       -0.03793777 0.04607795 -0.013991267 0.050903317
000190 28 01 b4 3d 31 69 c2 3c e6 74 22 bd f9 c4 80 3d
       0.08789283 0.0237318 -0.039662264 0.062875696
0001a0 0f 12 9f 3c cd 31 35 3d 9c 80 d2 3a e1 85 10 3d
       0.01941779 0.044236947 0.0016060057 0.035283927
0001b0 0c 6d 7b bd a4 22 f1 3b 1f 69 0e 3d 1d 9d a8 3b
       -0.061383292 0.007358866 0.03476822 0.0051456825
0001c0 94 fb 83 bd 51 e1 27 3d c3 3f c1 bc 62 e3 53 3c
       -0.06444469 0.040986363 -0.023589974 0.01293263
0001d0 d9 d6 19 3d e2 af 0e bd 8d 3e 31 bc dc ae 4e 3d
       0.03755841 -0.034835704 -0.010818136 0.050459728
0001e0 b1 d5 47 3d 7e 7b 06 3c 8f c3 81 3c bb 59 1d 3d
       0.048787776 0.008208154 0.01584032 0.03841565
0001f0 76 f9 1f 3d 68 7d 94 3a b7 e4 44 bd d8 01 8f 3d
       0.039056264 0.0011328878 -0.048069682 0.069827735
000200 3b 88 10 bd 65 83 b7 bc 66 10 34 3d 30 17 ea bb
       -0.03528617 -0.022401521 0.04396095 -0.0071438774
000210 18 aa 46 bd 60 38 a8 bc 85 bf df 3c 49 2f 02 bd
       -0.048502058 -0.020534694 0.027313003 -0.031783376
000220 7b a3 33 3d 8f 37 be 3c 9e 6a ff bc 6e a1 32 bd
       0.04385708 0.023219852 -0.031178769 -0.043610983
000230 a6 92 be bb 26 05 d4 bc fa 8c 1b 3d 67 d4 f7 3c
       -0.0058158217 -0.025881361 0.037976243 0.030252649
000240 b8 8a b8 bc 6e 1b 66 3d 10 a6 4b 3d d4 86 31 3d
       -0.022527084 0.056178503 0.049718916 0.043341473
000250 48 69 92 3d b7 cd ee ba 53 86 1e 3d 52 8f d5 bc
       0.07148987 -0.0018219267 0.03870232 -0.026069317
000260 b4 4f 80 bc 82 73 cc 3b 43 7c 60 bc 3a 78 83 bb
       -0.015663005 0.0062393555 -0.013701501 -0.004012135
000270 36 b6 98 bc 18 cf 39 bd 06 5c 66 3c e2 31 a3 3d
       -0.018641572 -0.045363516 0.014060026 0.07968499
000280 c3 47 ed bc cb ba 06 bd fe 77 20 bd a8 cc 84 3d
       -0.028964883 -0.032892983 -0.039176933 0.064843476
000290 50 4c 2d bd bb ae 1a bd c0 67 7f 3d a5 86 45 bd
       -0.042309105 -0.037764292 0.062354803 -0.04822411
0002a0 44 26 0f bd bc 0f 12 bc 2e 09 0c 3d 98 1f 9e bc
       -0.034948602 -0.008914884 0.034188442 -0.019302174
0002b0 a6 79 ae 3b ac 12 eb 3c 12 ed cb 3c a4 1d e9 3b
       0.00532456 0.028695427 0.024893317 0.007114129
0002c0 47 bd da bc 07 c4 73 3d 9d 6c 45 3b dd 77 22 3b
       -0.026701583 0.059513118 0.0030124553 0.0024790682
0002d0 80 97 bb 3c a4 84 aa bd 63 0c 69 bd b9 47 6a bd
       0.02289939 -0.083260804 -0.05689658 -0.057197306
0002e0 82 8b 7e 3d 4c a0 52 3c 17 48 e0 bc 26 fe 9f 3c
       0.062144764 0.012855601 -0.027378125 0.019530367
0002f0 47 31 42 bd ad ad d5 bc 3b d1 28 3d 66 81 16 3d
       -0.047410276 -0.026083792 0.041215163 0.036744498
000300 e5 e9 51 bd 68 72 12 3d d6 fb 3f bd 3e 1e 39 bd
       -0.05124845 0.035753638 -0.04687103 -0.045194857
000310 af a2 ab bc fd 61 1c 3d 46 4e a3 bd 3f da 48 3c
       -0.020951597 0.038179386 -0.07973914 0.012259065
000320 af 1a bf bd 1e 21 53 bd 81 4c c3 bc 50 25 c0 3c
       -0.09331261 -0.051545255 -0.02384019 0.023455292
000330 2e 3a d1 bc b1 23 4a 3d 97 f2 8f bd af a5 1e 3d
       -0.025540438 0.049350444 -0.07028692 0.038732227
000340 79 45 ff bc 30 19 64 bd d7 fa c0 3c fe 35 26 bd
       -0.031161057 -0.055688083 0.02355711 -0.040578835
000350 ed ed af bd cb 95 45 bd 56 0c 49 bd 15 47 10 bd
       -0.085903026 -0.048238557 -0.04908403 -0.03522404
000360 b2 95 2a bd 24 bf 26 3d e2 70 ea 3c cc c2 74 3d
       -0.041646667 0.04070963 0.02861828 0.059756085
000370 33 3b 22 bc 4a 2a a1 3c fb 96 c0 3c 1f 99 8c 3c
       -0.0099018095 0.019673485 0.023509493 0.017162858
000380 d5 e7 35 3d ae 1b 7d bd 33 b6 5a bd 81 64 11 3c
       0.044410545 -0.061793976 -0.053396415 0.00887406
000390 47 0b 8c 3d 78 83 38 3c 6d 5d 86 3d 41 3c 5f bd
       0.068380885 0.011261813 0.06560788 -0.054500822
0003a0 0f 17 a5 bd 3e e0 fc 3c 52 85 ce 3c 27 df be bc
       -0.08061039 0.030868646 0.025210056 -0.023299767
0003b0 11 d1 5f bd 9a 69 a8 3c a3 e2 7f 3d 9f 36 16 bd
       -0.05464274 0.020558167 0.062471997 -0.036673184
0003c0 11 f1 6b 3d 74 8d 48 bd ca 84 a7 bd 2f 39 93 3d
       0.057602946 -0.048963025 -0.081796244 0.07188641
0003d0 dd 25 ed 3a 8c d3 1c 3d 7f 8d 03 3d 69 c0 74 3d
       0.0018092949 0.038287684 0.032117363 0.05975381
0003e0 4b 5d 55 3d 4a e9 78 3d 36 f6 ba bc 93 ee c2 bd
       0.052090924 0.060769357 -0.02282248 -0.09518161
0003f0 97 01 07 3d 4d ea a0 bd a5 cb 1f bd 6e 11 f2 3c
       0.0329605 -0.07857189 -0.03901257 0.029549327

conv1.0.bias f4 [64]
000000 84 8c a3 36 e0 fa bb 35 b2 32 49 b6 d9 5d 94 35
       4.8741367e-06 1.40056e-06 -2.9980843e-06 1.1054173e-06
000010 54 e7 3d 36 84 9e 34 b5 30 69 09 36 8b 56 92 b5
       2.8297845e-06 -6.7285896e-07 2.0475818e-06 -1.0903035e-06
000020 c2 ff 65 b5 86 3e ce b5 1b fc 9a b5 30 d6 aa b5
       -8.5681324e-07 -1.5366393e-06 -1.1547266e-06 -1.2728324e-06
000030 61 60 97 36 0c f4 90 37 45 9e a6 b4 f0 cb 00 36
       4.5113707e-06 1.727978e-05 -3.1035066e-07 1.9192194e-06
000040 56 fc 0f 37 a8 45 40 b6 03 b8 90 b6 86 ed 84 33
       8.582216e-06 -2.8650775e-06 -4.312956e-06 6.189934e-08
000050 61 aa cb b4 b7 92 06 33 b7 65 8a b4 42 fe a4 35
       -3.7935663e-07 3.1332743e-08 -2.577851e-07 1.2292951e-06
000060 cd 2a 32 b5 89 b7 c9 b6 5e 2b 7b b5 17 e5 a4 b5
       -6.637245e-07 -6.011633e-06 -9.3567894e-07 -1.2285626e-06
000070 e4 51 ea 35 58 b6 f1 b5 b6 c8 94 36 3c 32 c9 36
       1.7458192e-06 -1.8008968e-06 4.4341095e-06 5.996115e-06
000080 54 a6 1f 35 7d 82 a8 35 58 7c ae b3 e9 13 b2 36
       5.9474155e-07 1.2554952e-06 -8.1251244e-08 5.3071312e-06
000090 54 e8 14 34 a8 6b 7b 35 b5 ed 1d 36 99 3a 86 b5
       1.3868095e-07 9.3661447e-07 2.3533187e-06 -1.0000832e-06
0000a0 de be 52 b6 53 1e 44 36 7a 32 07 36 e6 36 b0 b5
       -3.1403538e-06 2.9223927e-06 2.0145949e-06 -1.3128999e-06
0000b0 1d 15 23 b6 ce fd fe b4 e2 4f 9f b5 7a de 57 35
       -2.4301182e-06 -4.7495854e-07 -1.1869672e-06 8.041749e-07
0000c0 ee 0b 9c b5 e7 2c 9d b5 e8 2d 81 36 c4 d0 71 b5
       -1.1626378e-06 -1.171048e-06 3.849844e-06 -9.008329e-07
0000d0 e4 8c 3e b6 8c 60 14 35 7a 66 b0 b5 ee 8f eb 35
       -2.8394215e-06 5.527479e-07 -1.3142846e-06 1.7550753e-06
0000e0 be 61 cf 35 a8 25 80 35 75 4d 67 36 ae 41 99 36
       1.5451149e-06 9.547703e-07 3.4466768e-06 4.5674014e-06
0000f0 9b fc f5 b6 ab 25 90 35 63 a4 7d b7 d3 93 2b b6
       -7.330976e-06 1.0739799e-06 -1.5118249e-05 -2.556703e-06

conv1.1.weight f4 [64]
000000 34 89 81 3f c9 e4 82 3f df a4 82 3f f1 b2 84 3f
       1.0119996 1.022607 1.0206565 1.0367109
000010 32 0f 83 3f 30 f4 7f 3f 05 a7 87 3f 9b 02 82 3f
       1.0239012 0.99981976 1.0597845 1.0157045
000020 30 fa 7f 3f fa 9f 82 3f 2d a7 81 3f f1 11 83 3f
       0.9999113 1.0205071 1.0129143 1.023985
000030 b7 c2 82 3f e3 94 8a 3f 4e 0c 81 3f 97 5b 86 3f
       1.0215672 1.0826687 1.008188 1.0496701
000040 fd 95 88 3f 9d f3 82 3f 18 6a 84 3f 27 f7 85 3f
       1.0670773 1.0230595 1.0344877 1.046605
000050 37 73 7e 3f cb a6 7f 3f 57 50 82 3f 97 f5 7e 3f
       0.99394554 0.9986388 1.0180768 0.9959349
000060 72 e1 84 3f 6b 29 8c 3f 66 be 83 3f 46 20 80 3f
       1.03813 1.095014 1.029248 1.0009849
000070 26 9c 82 3f 1c 73 8a 3f c0 6f 82 3f 05 26 85 3f
       1.0203903 1.0816379 1.0190353 1.0402228
000080 a4 3c 83 3f ef 13 86 3f 44 cb 83 3f 36 18 84 3f
       1.0252881 1.0474833 1.0296407 1.0319889
000090 14 03 82 3f 49 03 83 3f da 12 82 3f 96 ad 87 3f
       1.0157189 1.0235378 1.0162003 1.0599849
0000a0 3d 0b 80 3f 4d 56 85 3f 5f 9f 7e 3f 0a f7 83 3f
       1.000343 1.0416962 0.9946193 1.0309765
0000b0 d8 21 88 3f 0a a8 81 3f 39 38 85 3f f3 94 83 3f
       1.0635328 1.0129406 1.0407783 1.0279831
0000c0 04 a7 83 3f e9 f7 85 3f 7e 34 88 3f ce 4d 83 3f
       1.0285344 1.0466281 1.0641019 1.0258119
0000d0 9e fd 84 3f 91 79 84 3f e5 26 7b 3f f3 e9 89 3f
       1.0389898 1.0349599 0.98106223 1.0774521
0000e0 e5 a3 81 3f bf 14 8c 3f d0 ea 83 3f c2 93 86 3f
       1.0128142 1.0943831 1.0306034 1.0513842
0000f0 95 90 86 3f 4a f2 81 3f d9 04 88 3f bb 53 88 3f
       1.0512873 1.0152066 1.0626479 1.0650553

conv1.1.bias f4 [64]
000000 e1 d1 c4 bc 67 2e 3f bd 57 b6 5e bd 0b 3b 9c bd
       -0.02402586 -0.046675112 -0.05437311 -0.07628449
000010 36 8d 3a bd b6 39 80 bd 3e 98 83 3d b8 06 82 bd
       -0.045544825 -0.062610075 0.06425522 -0.06348938
000020 bb 86 79 bd 73 7b 80 bd d3 54 5f bd 54 21 41 bd
       -0.060919505 -0.06273546 -0.054524254 -0.047150925
000030 da 79 42 bd 48 62 b6 3d 58 c6 76 bd 8c a5 8b bd
       -0.047479488 0.089054644 -0.06024775 -0.06818685
000040 97 e8 c6 3d 05 c3 6d bd 4d f9 79 bd f4 6c 85 bd
       0.09712332 -0.058047313 -0.061028767 -0.06514922
000050 67 84 6d bd d6 26 77 bd 0a 71 73 bd 4f 8f 6b bd
       -0.057987597 -0.06033977 -0.059433974 -0.057509717
000060 4a 65 65 bd fe bd b9 3d ce df 8d bd 52 2a 8d bd
       -0.0560048 0.09069441 -0.06927453 -0.068928376
000070 45 6b 95 bd a9 71 ac 3d f4 2e 62 bd 06 c1 88 bd
       -0.07295851 0.084201165 -0.05522056 -0.06677441
000080 53 33 3b bd 4e bb 4c 3d cf 41 a7 3d 8d ce 8a bd
       -0.045703243 0.049983315 0.08166849 -0.06777678
000090 91 f4 43 bd 06 10 71 bd 88 cd 89 bd fc 87 c4 3b
       -0.04784066 -0.05885317 -0.06728655 0.005997656
0000a0 e0 2a 7d bd e5 69 38 bd f7 62 7c bd 06 57 81 bd
       -0.061808467 -0.045022864 -0.061617818 -0.063154265
0000b0 57 84 06 3c 06 3e 97 bd 6b fe 84 bd 19 50 76 bd
       0.008210263 -0.07384877 -0.06493839 -0.06013498
0000c0 6d 8e 6f bd b7 ba b3 bc f7 bb 62 3d ad ec 82 bd
       -0.058485437 -0.021939619 0.05535504 -0.063927986
0000d0 82 ad 71 bd 64 ea 83 bd 80 18 71 3c 38 59 a0 3d
       -0.05900336 -0.06441191 0.014715314 0.07829517
0000e0 db 83 87 bd ec 41 11 3d 45 a3 95 bd ff 83 86 3d
       -0.06616946 0.03546326 -0.07306532 0.06568145
0000f0 0a 3a 94 bd 80 c4 87 bd 74 55 89 bd 73 73 3a 3d
       -0.072376326 -0.06629276 -0.06705752 0.045520257

conv1.1.running_mean f4 [64]
000000 78 50 24 3e 67 c6 31 3e 98 68 3f 3e 5f 34 53 3e
       0.16046321 0.1736084 0.18692243 0.20625447
000010 65 0a c7 3d 10 c5 6a 3e a2 c0 90 be f9 34 93 3e
       0.097187795 0.22926736 -0.28271967 0.28751352
000020 e7 9b 81 3e a5 d6 40 3e 1f dc 39 3e 4b 06 7a 3d
       0.25314257 0.1883188 0.18150376 0.061041158
000030 ae d8 38 3e 87 69 e7 be 30 76 fb bb 76 28 56 3e
       0.18051407 -0.45197698 -0.007674001 0.20913872
000040 6d 5f 17 3e 2b de 03 3c 4d b2 1c 3e 4d a3 2f 3e
       0.14782496 0.008048574 0.15302391 0.17152138
000050 a0 7c 19 bc 43 82 3e 3e c0 0d a0 3d 00 17 64 3d
       -0.009368092 0.18604378 0.078151226 0.055685997
000060 81 91 a0 3e f8 19 00 bf 46 08 af 3e 34 62 8f 3d
       0.3136101 -0.50039625 0.34186 0.07001153
000070 68 38 2e 3e 2c 9a 02 bf 77 eb b8 3e 6f 79 99 3e
       0.17013705 -0.510165 0.36117145 0.2997546
000080 ba f1 dd 3d ad 58 01 bf 19 ec e4 be 2b a0 a1 3e
       0.10837121 -0.50525934 -0.44711378 0.3156751
000090 d0 70 bf bd 33 d6 5a 3d 6d 8d 66 3e 34 00 7b 3e
       -0.09347689 0.053426933 0.22514887 0.24511796
0000a0 28 88 03 3e 30 60 11 3e 77 b4 15 3e 2c 47 92 3e
       0.12844908 0.14196849 0.14619623 0.28569925
0000b0 7a f5 b0 be 4a 48 09 3e fd a0 78 3e fb aa 71 3e
       -0.34562284 0.13406482 0.24280162 0.2360038
0000c0 cc 83 8e 3e 27 6a 8f 3e 1a 32 0e bf 71 33 f6 3d
       0.27834928 0.28010675 -0.555452 0.120215304
0000d0 1a 10 88 3e d5 89 73 3e 59 c3 ca bd d1 a6 fb be
       0.26574785 0.23783047 -0.09900541 -0.49150708
0000e0 e1 af 0c 3e 7e 6b f6 be f4 69 c4 3d 34 3d 13 bf
       0.13738967 -0.48128885 0.095905215 -0.57515264
0000f0 4b fc de 3d e0 cb 73 3e 38 29 8a 3e dd 03 96 be
       0.10887965 0.23808241 0.26984572 -0.29299822

conv1.1.running_var f4 [64]
000000 4f 77 00 42 e4 9e 04 42 27 dd d2 42 e5 c1 e5 42
       32.116512 33.155167 105.43194 114.8787
000010 0d 2b a3 42 57 3f 98 42 ae c1 dd 41 23 f5 1f 42
       81.58408 76.12371 27.71957 39.98939
000020 21 d1 c0 42 c0 82 a6 42 41 7e 4f 42 8f 9f 40 42
       96.408455 83.25537 51.873295 48.15582
000030 81 f4 11 43 0e 96 d3 41 52 9d b2 42 7d 77 b3 42
       145.9551 26.448269 89.30727 89.733376
000040 e3 30 13 42 31 64 b6 42 d1 c1 79 42 7f 5e ed 42
       36.79774 91.19569 62.439274 118.68456
000050 f6 9f 68 42 10 a0 21 43 53 b2 f9 42 64 ee 94 42
       58.15621 161.62524 124.84829 74.46561
000060 33 e7 05 43 b8 16 07 42 d4 5c aa 42 a6 fa 67 42
       133.90312 33.772186 85.181305 57.994774
000070 41 34 a6 42 6c e8 00 42 cc 40 b9 42 33 68 36 42
       83.10206 32.226974 92.62656 45.601757
000080 fd fa 64 42 fe e8 01 42 70 e1 0e 42 a8 ba af 42
       57.245106 32.47753 35.720154 87.86456
000090 cb 4d 14 43 cb 78 d6 42 24 79 94 42 7f 54 0d 42
       148.30388 107.23592 74.2366 35.332516
0000a0 44 8e cf 42 df f5 c2 42 c1 53 1d 43 8b b6 82 42
       103.77786 97.48022 157.32716 65.35653
0000b0 89 c1 20 42 36 78 74 42 76 2b 47 42 e5 6b ab 42
       40.189 61.117393 49.792442 85.71073
0000c0 00 4b d6 42 2d 4f 37 42 70 9b 16 42 bf aa 5c 42
       107.146484 45.82732 37.651794 55.166744
0000d0 f6 05 5f 42 71 a3 de 42 8e 6a 8e 42 af bd 25 42
       55.75582 111.31922 71.208115 41.435238
0000e0 96 15 45 42 c4 dd 0b 42 5f 90 f1 42 a7 a4 fb 41
       49.27108 34.966568 120.781975 31.455397
0000f0 df 39 0e 42 ff c9 c0 42 f5 52 02 42 5f 7d 02 42
       35.556515 96.39452 32.581013 32.622433

fc1.0.weight f4 [128, 128]
000000 dc a5 92 bb f6 29 04 3c 80 dc 8c 3d be 2b 64 3d
       -0.0044753384 0.008066645 0.068779945 0.05570578
000010 e0 bc 90 bc 64 84 2d bc 85 b9 fe bc 24 7f 81 bd
       -0.017668188 -0.010590646 -0.031094322 -0.06323078
000020 7e de 3d 3d b1 3f 76 3c ea a7 71 3d b5 a3 d8 bb
       0.046354763 0.015029834 0.058998026 -0.0066113123
000030 f7 b2 22 bd 4a 2e 82 3d b0 f2 30 3d 8b 67 c5 3d
       -0.039721455 0.06356485 0.043200195 0.0963889
000040 53 f3 7d bd fd 91 84 bd 8b af a1 3c a8 c5 3b 3d
       -0.06199963 -0.064731576 0.019737026 0.045842797
000050 40 6c 86 3d a3 49 19 3d 25 21 30 3b 3d 72 b3 bb
       0.06563616 0.03742374 0.0026875224 -0.0054762647
000060 77 81 08 3c d2 02 aa 3d d5 c6 fb bc b7 00 ca 3a
       0.008331648 0.08301319 -0.030734459 0.001541159
000070 35 4f 8b 3c f0 c2 cd 3d 36 23 81 3c 0a 62 99 3d
       0.017005542 0.10046947 0.01576386 0.074894026
000080 16 29 26 3d 56 2b 86 3d 37 1f c1 3d e3 81 50 bd
       0.040566526 0.065512344 0.09429782 -0.05090512
000090 49 97 10 3a 78 21 fc 3b 60 74 47 3c f9 61 97 bc
       0.00055157073 0.0076944195 0.012173742 -0.018479334
0000a0 94 01 3c 3d 3a 00 9f 3d db 9b a4 3d 73 f9 87 3d
       0.045899943 0.07763715 0.080375396 0.066393755
0000b0 df d8 b9 3d 39 0e ae bb d0 d4 f0 3b 08 50 d9 3c
       0.09074568 -0.005311754 0.007349588 0.02652742
0000c0 35 b3 26 3c 5e 79 2f 3d f4 72 a9 bc 5b 35 80 3d
       0.010174562 0.042840354 -0.020684697 0.06260177
0000d0 86 e7 84 3c 90 f9 7e 3d 89 f6 67 bc 7c 77 58 3c
       0.01622368 0.06224972 -0.0141579 0.013212081
0000e0 24 e9 b9 bc aa d8 6c bd da 8c b0 bd ba b4 b5 3d
       -0.022694178 -0.057823814 -0.08620615 0.088723615
0000f0 a1 c5 be bc fb ff ad 3d 0c 4f df 3c e9 81 d4 3d
       -0.023287596 0.0849609 0.027259372 0.10376341
000100 b6 43 8f 3d 14 61 8a 3d 4d e9 21 bd 47 28 6a bc
       0.06995337 0.067567974 -0.039529134 -0.014291829
000110 91 b0 46 3c 60 54 16 bd 4f 28 48 bd 1d e1 85 3d
       0.012127058 -0.03670156 -0.048866566 0.065370776
000120 3c 15 d8 bc 18 ba 87 3d 93 ac 10 3c 6f 73 0d 3d
       -0.026377313 0.066272914 0.008830207 0.034533914
000130 19 be a6 3d d6 c8 56 3d 6c e7 2c bd 29 64 f1 3d
       0.08141727 0.052437626 -0.04221289 0.11786682
000140 ce 88 b0 3d c4 06 83 bd ee e3 95 bc 5c 59 45 3d
       0.086198434 -0.06397775 -0.018297162 0.048180923
000150 65 57 86 bc ad 8d 2f bc 62 51 76 bd d5 de 8c bd
       -0.016399095 -0.0107149305 -0.060136206 -0.06878439
000160 0f 5e 6e 3d 27 9a ba 3d 97 52 c1 3d bc 01 d5 3d
       0.05819517 0.091114335 0.09439581 0.104007214
000170 0a 20 04 bd df 28 bf bc 58 ec 29 bd 2c f8 5f bc
       -0.032257117 -0.023334919 -0.04148516 -0.013670009
000180 11 c9 39 3d 29 f9 ac 3d ed b1 8b 3d 65 85 7c bd
       0.045357767 0.08445961 0.06821046 -0.061650652
000190 f3 68 19 bd 97 b8 e4 3b d8 67 9e 3d 5b 03 11 3d
       -0.037453603 0.0069800126 0.077346504 0.03540359
0001a0 86 61 ae 3c 7a 73 a2 3d a4 d3 c8 bc 09 c8 08 bd
       0.021286737 0.07932182 -0.02451498 -0.033393893
0001b0 da f2 0e bd aa b4 92 3c 7b 04 e8 bd eb 80 59 bd
       -0.03489957 0.017908413 -0.113289796 -0.05310146
0001c0 58 97 3e bd 61 ce 6b bd 2d 0c 83 bb d5 f0 61 3b
       -0.04653105 -0.057569865 -0.003999254 0.0034475822
0001d0 c6 11 3f 3b 2a a8 8d 3d eb b2 5e bd 8d ec c5 3d
       0.002915488 0.069168404 -0.05436985 0.09664259
0001e0 67 56 bf 3d b3 91 62 3d dd b6 5a 3d 69 e3 c1 3d
       0.09342652 0.05531473 0.05339705 0.09467203
0001f0 74 d9 ec 3d 40 c1 a1 bc b8 87 0b 3d 7c f8 ea 3d
       0.115649134 -0.01974547 0.03406498 0.11473176
000200 3c e9 23 bd 82 9b a9 3c 60 b8 9a 3d 5c 86 c1 bc
       -0.04001735 0.020704035 0.07554698 -0.023623638
000210 05 5b 8a bc a9 92 92 3d 5e 6b b2 bc fd 80 8a bc
       -0.016889105 0.071568795 -0.021779712 -0.01690721
000220 8e e2 68 3d a5 47 c7 bc d4 f3 91 3d 7f 80 3d 3d
       0.056856684 -0.024326155 0.07126585 0.04626512
000230 a6 5f 8f 3d 44 18 41 3d 0e b3 98 bd 01 f5 66 3d
       0.07000665 0.047142282 -0.07456027 0.056385998
000240 d4 df 7a bd bb 34 0a bd cb 2a 0b bd 04 c0 a4 bd
       -0.061248615 -0.033741694 -0.033976357 -0.080444366
000250 a9 46 97 bd d3 ba 77 3b 62 d5 81 bd 80 ba 97 3d
       -0.07386524 0.0037800565 -0.06339528 0.07408619
000260 dc b2 97 bc c4 f0 29 bb 15 46 20 3d 4e 74 2a 3d
       -0.018517904 -0.002593086 0.039129335 0.041614823
000270 be 56 23 bd 6f 5d 46 bd 22 ea 92 bd 32 87 c8 3b
       -0.039877646 -0.04842895 -0.071735635 0.006119632
000280 c2 be 4c bd 96 96 e8 bc 22 90 75 3d bd be c0 bd
       -0.04998661 -0.028392117 0.05995191 -0.094113804
000290 0e 3d 1f bd 1a c7 2b bd 90 b4 de 3c 29 90 3a 3d
       -0.038876586 -0.041937925 0.027185708 0.045547638
0002a0 42 62 2c 3d df 3c 74 3b 67 a5 10 3d c5 c1 cb 3c
       0.042085893 0.0037267727 0.03531399 0.02487267
0002b0 63 ac 0a 3d 22 24 72 bd 53 f2 90 3d a3 bc 6a 3c
       0.033855807 -0.05911649 0.0707747 0.014327201
0002c0 92 57 b7 bd 9b 10 ce bd ca 37 41 bd 01 bd 27 bc
       -0.089522496 -0.10061761 -0.047172345 -0.010237933
0002d0 03 63 58 3d 31 7e f6 3b 06 b9 95 3d d5 32 84 3d
       0.0528288 0.0075223674 0.07310681 0.06455008
0002e0 53 9f a1 bc 81 c6 1b 3c c4 92 1c 3c c1 b2 98 bc
       -0.019729292 0.009507776 0.009556476 -0.018639924
0002f0 f8 22 73 3d c0 a4 85 3b 9f 15 a8 bd 0b 36 a7 bc
       0.05935952 0.0040784776 -0.08207249 -0.020411512
000300 a2 41 bf bd 27 55 a6 bc e0 ac 6e 3d 3f 20 e0 bc
       -0.0933869 -0.020304276 0.058270335 -0.027359126
000310 74 6f a7 bd e6 06 0e bd 11 03 6e 3d 5c 12 4c 3d
       -0.08175555 -0.034674548 0.058108393 0.049822196
000320 06 f8 6b bd db 36 3c 3d 4b f6 3b bd 4b 6d b9 bd
       -0.05760958 0.04595075 -0.04588918 -0.09054049
000330 fa 59 0f 3d 15 6f 66 bd c0 9f 37 bd bb 51 a8 bc
       0.034997918 -0.05625828 -0.044830084 -0.020546785
000340 a6 63 b6 bc 15 43 92 3d 88 a2 68 bd ea d3 a4 bd
       -0.022264313 0.07141701 -0.056795627 -0.08048232
000350 c9 1f 05 bd 13 06 ac bd 25 da 69 bb c5 28 2b bc
       -0.032501016 -0.08399596 -0.0035683003 -0.010446732
000360 76 98 a7 3d 1f f2 fa 3b 83 03 47 3d 0b aa 17 3d
       0.081833765 0.0076582576 0.048587333 0.0370274
000370 1d 0d c9 bd 3f cf cc 3c 4c ce 94 bc 55 09 9c 3d
       -0.09816954 0.025001166 -0.018164776 0.076189674
000380 7e ce 99 bd 21 57 84 bd ef e9 c0 bd 66 2e 4a bd
       -0.075100884 -0.06461931 -0.09419619 -0.049360655
000390 ad d0 58 bd f7 83 3d 3d 11 80 51 3d dd 9f f3 bc
       -0.052933384 0.04626843 0.051147524 -0.029739315
0003a0 8c 2a 9e 3d 54 78 57 bd 75 80 83 bd 31 30 c5 3c
       0.07722959 -0.05260499 -0.064209856 0.024070831
0003b0 27 4d 27 3c ff f8 d1 3c e5 53 59 bd cc 03 a9 bd
       0.010211266 0.025631426 -0.053058524 -0.08252677
0003c0 6d c4 30 bc 89 c1 41 3d 9e 37 e0 3c e4 77 2d bc
       -0.010789019 0.04730371 0.02737027 -0.010587666
0003d0 19 6d bd bd ba c7 ed bc f4 80 a7 bd 85 07 8d 3d
       -0.09249324 -0.029025901 -0.08178893 0.068862
0003e0 b3 c5 1d 3c aa c2 8f bd 45 34 3e 3d ff fc 87 3d
       0.009629655 -0.07019551 0.046436567 0.06640052
0003f0 7a 57 96 bd 9a d8 c6 3c 47 b3 8c bd 60 c8 bb bd
       -0.073409036 0.024273206 -0.06870132 -0.09169078

fc1.0.bias f4 [128]
000000 fa 88 5d bd 46 5e 6d 3c 9e 66 c0 bd 12 65 00 3e
       -0.05408571 0.014487809 -0.09394573 0.12538555
000010 9b 50 9e 3d 6a a0 83 bd b5 6e 54 bb 62 3a 13 3e
       0.07730218 -0.06427081 -0.003241462 0.1437774
000020 86 13 bd bc 36 17 65 bd fa 78 e9 bd 89 e4 85 bd
       -0.023080599 -0.05593034 -0.114000276 -0.0653773
000030 9d 8c 03 3e 12 90 c2 3b 0e a0 a5 bd 21 4b 65 bb
       0.12846608 0.0059375847 -0.08087169 -0.0034987407
000040 d6 03 e7 bd 3b 8a 62 bd 36 12 12 3d 51 cd b8 bd
       -0.112800285 -0.055307608 0.0356619 -0.09023536
000050 39 17 cb 3c e4 70 de 39 6f ec d1 3d f3 69 0e 3e
       0.024791347 0.0004242725 0.10250174 0.13907604
000060 cb fd 1b be d3 68 fb 3d a9 6e 32 bd 6a 68 f4 3d
       -0.15233533 0.12275853 -0.043562565 0.11933978
000070 06 f1 ae 3d 56 75 15 be b4 58 f5 3d 4a aa ff bb
       0.08542065 -0.14595541 0.119798094 -0.0078022825
000080 27 78 01 be 31 7a af 3d 9c 86 a2 bd 66 19 85 3b
       -0.1264349 0.08568228 -0.07935831 0.0040618656
000090 c7 13 d7 bd 81 4e e2 3c d4 84 1c bc 5e 01 42 3c
       -0.10501819 0.027625324 -0.009553153 0.011841146
0000a0 b3 22 32 3d 6f 21 40 3d 36 0e 4a 3c 94 19 9d bd
       0.043490123 0.046906885 0.01233249 -0.07670894
0000b0 9c 79 62 bd 1c e8 fa bd 3c d7 1c bd a2 f8 1f 3e
       -0.055291757 -0.122513026 -0.0382912 0.1562219
0000c0 86 17 b1 3c 98 63 e3 bd c7 bc bb 3b 07 b2 79 bd
       0.021617662 -0.111029804 0.005729291 -0.060960796
0000d0 b6 b9 a8 3d ab ef 19 3e e2 e7 8b 3d 23 82 17 3e
       0.082385466 0.15032832 0.068313375 0.14795737
0000e0 e7 00 34 3d 00 c8 f6 3d 7f f8 d6 3d 51 ce ee 3d
       0.043946173 0.12049866 0.104966156 0.116604455
0000f0 ff e6 e0 3c 32 f8 fb 3d ab 42 c6 bd ac fd 08 3d
       0.027453898 0.12303199 -0.09680685 0.033445045
000100 57 d5 02 3e ba a6 56 bd 14 35 f0 bd 09 ec 43 bc
       0.12776695 -0.052405097 -0.11728874 -0.011958131
000110 c8 63 4b 3d 73 0e be 3d 8b 06 60 3d 5f 1e ca 3d
       0.049655706 0.092801 0.05469374 0.09869074
000120 85 a6 7d 3c ec 4f 9c 3d a9 2d ac bc cb 80 a8 bd
       0.015481596 0.076324314 -0.021017866 -0.0822769
000130 4a d3 de 3d 2c ae f7 3d 08 f0 97 bd 46 0d 72 bb
       0.10880144 0.120937675 -0.07418829 -0.003693418
000140 11 e1 9f b9 03 14 c0 bc b5 d2 3a 3c ec 36 e2 3c
       -0.0003049453 -0.023447042 0.0114027755 0.02761408
000150 cd 23 ec bd a5 78 b3 bd 82 2a eb 3c 47 43 e2 bd
       -0.11530266 -0.087632455 0.028706793 -0.110479884
000160 96 c2 fe bd d8 37 c7 3d cf 1a 26 3e ab 91 eb 3b
       -0.12439458 0.09727448 0.16221164 0.007188996
000170 2c e1 f2 3d 1a 84 e6 bd 55 06 91 bd e7 99 d9 3d
       0.118593544 -0.11255665 -0.07081286 0.10625058
000180 5c 82 d4 bd 71 44 f3 3d f4 08 de 3d c6 9f 56 bb
       -0.103764266 0.118782885 0.108415514 -0.003274904
000190 92 ad 2d 3d 98 5d 2d be 6e 6b a1 bd 66 b9 ef 3c
       0.042401858 -0.16930234 -0.07881819 0.02926321
0001a0 18 84 0c 3e d8 04 07 3d 7d 67 f2 bd 37 8e 86 bc
       0.13722265 0.032963604 -0.11836145 -0.016425235
0001b0 f2 d4 c9 bd 13 2a 6b 3c 43 b9 9a 3b 82 a0 89 3d
       -0.09855069 0.014353293 0.004721792 0.067200676
0001c0 f3 f2 26 bd ef 72 46 3d a9 f5 0a 3e 42 5b 75 bd
       -0.04075904 0.048449453 0.13570274 -0.059901483
0001d0 a9 24 08 3c 1b b7 00 3d 9b 84 56 bd de bf af bd
       0.008309522 0.031424623 -0.052372556 -0.08581518
0001e0 2a 1b ce bc 40 30 3f bd c4 f1 2c 3c 98 88 19 bc
       -0.025159437 -0.046676874 0.010555688 -0.009370945
0001f0 95 21 d9 3d 98 95 03 3b 8f 0b 0c bd 67 2c 00 be
       0.106021084 0.0020078178 -0.03419071 -0.12516938

fc1.3.weight f4 [2, 128]
000000 8f dd 73 3b a9 56 ce b9 1b 19 0a bd c8 1f f9 3d
       0.0037210917 -0.0003935595 -0.03371535 0.12164265
000010 90 e4 02 3e 41 93 bf bd 78 47 a0 3d ed 25 d0 3d
       0.12782502 -0.09354258 0.078261316 0.10163484
000020 9a 41 fa bd e8 2e 05 3d ff e2 ee bd 9a ca 02 3d
       -0.12219544 0.032515436 -0.1166439 0.031931497
000030 34 1a 06 3e 82 5e be 3c b9 df 8c bd 50 6e f2 3c
       0.13095933 0.023238424 -0.06878609 0.029593617
000040 6b 58 8a bd 67 20 23 bd ed bc 14 3e 7f 99 74 bd
       -0.06755146 -0.039825823 0.14525194 -0.059716698
000050 ec f2 1d 3c f3 6c 9d 3d 83 bb b4 3d 64 21 8b 3d
       0.009640437 0.07686796 0.088248275 0.06793478
000060 6e c8 99 bd 28 57 ba 3d f5 b1 0d bb b5 96 11 3e
       -0.07508932 0.09098655 -0.0021620963 0.14217646
000070 1b 15 2a 3e d7 15 a1 bd 3c 12 a8 3d a1 1f 9b 3d
       0.16609614 -0.07865494 0.08206603 0.07574392
000080 85 0b b6 3c 1b b9 d0 3d 98 aa b3 bd eb b8 92 bd
       0.02222229 0.10191556 -0.087727726 -0.071641766
000090 66 07 2c bd c6 64 ac bd ff 6a 84 bd c8 17 28 3d
       -0.041999243 -0.084176585 -0.064657204 0.041038305
0000a0 a7 ac 0a 3d 17 39 02 3e 34 5f 19 bd 59 36 75 bc
       0.03385606 0.1271709 -0.03744431 -0.014966571
0000b0 20 16 ce bd e1 82 0d be ee 1f e5 bd 55 a0 60 3d
       -0.10062814 -0.13819458 -0.11187731 0.054840405
0000c0 46 7b 95 3d bd cf d2 bc 29 82 86 bc 4d 5c c4 3c
       0.07298903 -0.025733823 -0.016419487 0.023969794
0000d0 71 89 17 3e fb bc bd 3d e9 de d6 3d e2 cd 83 3d
       0.14798523 0.09264561 0.104917355 0.064357534
0000e0 a3 b1 fa 3d 42 c8 c6 3c 58 74 72 3d ed b2 94 3d
       0.12240913 0.024265412 0.059192985 0.0726069
0000f0 c6 bc e5 3d 96 d2 1b 3e 98 91 33 bd 16 cb e1 3d
       0.11217646 0.15217051 -0.04384002 0.11025064
000100 7c dd 17 3e 0c b4 cb bc 01 10 1e be 77 d3 e0 3d
       0.14830583 -0.024866126 -0.15435793 0.10977834
000110 9a cb 0f 3e 10 05 1e 3e 96 f8 03 3d 4a 3c 1d 3e
       0.14042512 0.15431619 0.032219492 0.1535503
000120 db bf 32 bd 91 86 15 3e ca 37 8e bd ba b1 0f be
       -0.04364 0.14602114 -0.06944235 -0.14032641
000130 f6 f7 08 3e 77 23 c1 3d 8a 19 e8 bd 3b f2 38 bc
       0.1337584 0.094305925 -0.11332996 -0.011288221
000140 88 0f 1c bc c0 b0 95 3d cc 9d 7e bd 3a 0f ad 3d
       -0.009525187 0.07309103 -0.062162206 0.0845017
000150 90 b9 d5 bd 86 f0 ba bd dd 98 d0 bc 4c 7b 1d bd
       -0.10435784 -0.091279075 -0.025463516 -0.038447663
000160 78 dd b4 bd 36 d8 c1 3d 4c 4d 0e 3e c7 8e cc bc
       -0.08831304 0.09465067 0.13896674 -0.024970425
000170 15 ce 0b 3e 00 20 1d bd 4f 17 a9 3c 49 2e f9 3d
       0.13652833 -0.038360596 0.020640997 0.12167031
000180 c1 77 83 bd d6 98 1f 3e 47 f3 af 3d d4 a8 9c bd
       -0.064193256 0.15585646 0.08591323 -0.07649389
000190 60 ac fa 3d cb 88 90 bd 13 30 07 be a2 ae 73 bd
       0.12239909 -0.07057341 -0.13201933 -0.059492715
0001a0 af fb ac 3d b7 8e a4 3c e1 86 e9 bd bc 52 bc 3d
       0.08446442 0.020087583 -0.11402679 0.09195468
0001b0 14 f1 e0 bb 69 75 83 bd 2c c4 b6 bd de db 2a 3e
       -0.0068646763 -0.064188786 -0.089241356 0.16685435
0001c0 0b 99 c6 bb b8 c9 d9 3c e9 44 9b 3d ee 86 16 bc
       -0.0060607246 0.026585445 0.07581503 -0.009187443
0001d0 fe f9 49 bd aa a3 83 3c 9d 18 b6 bd 9a 11 10 be
       -0.049310677 0.016069252 -0.08891413 -0.14069214
0001e0 88 de 73 bc 74 90 dc bd 01 bd cc bc 23 24 a5 bd
       -0.014884599 -0.1076974 -0.024992468 -0.08063533
0001f0 5d 07 06 3e 75 01 ba 3d cf c2 18 3c 41 2c 89 bd
       0.13088746 0.09082309 0.00932379 -0.06697894
000200 71 20 98 3d 8a 39 ea bc 40 ed ac 3d 09 f9 dd 3c
       0.07428063 -0.02859189 0.08443689 0.027096288
000210 ad 4b e5 bd e6 2c 3c 3d 78 0a b6 bd 6d d4 9b bd
       -0.11196075 0.045941256 -0.088887155 -0.076088764
000220 dd 56 33 3d d1 b3 15 3d a2 44 03 3e ca 24 90 3d
       0.04378401 0.03654844 0.1281915 0.07038267
000230 78 33 00 bd e2 da 05 be a9 fa 84 3d b1 dd da 3d
       -0.031299084 -0.13071778 0.06493122 0.106868155
000240 a3 53 84 3d 6b d5 f5 3d 65 45 b9 bd 3d e8 8a 3c
       0.06461265 0.12003597 -0.09046439 0.016956443
000250 53 41 85 3d 7d a5 37 3c ff eb 90 bd 0a e1 20 be
       0.065066 0.011208889 -0.07076263 -0.15710846
000260 74 3f ae 3d 98 a1 b6 bd 48 e3 37 bd 40 2a ed bd
       0.085081965 -0.0891754 -0.044894487 -0.11580324
000270 18 1f 11 be 51 23 03 3e d0 79 a8 bd b5 25 38 3c
       -0.14172018 0.12806441 -0.08226359 0.011239459
000280 55 fe a4 3d be ac c5 bd 4e 75 a1 3c 36 9a 84 3c
       0.080563225 -0.096520886 0.019709256 0.016186815
000290 e3 c7 c6 3c f7 c1 c9 bc 16 29 30 bd bd db ca 3c
       0.024265235 -0.024628622 -0.043007933 0.024762983
0002a0 7f 2e 83 3d 1f 59 34 bd aa 73 1f 3b ac c7 a1 3d
       0.06405353 -0.044030305 0.0024330416 0.078994125
0002b0 67 f1 db 3d ba 52 2f 3d 73 94 e0 3d a4 53 12 be
       0.10739403 0.042803504 0.109658144 -0.14289719
0002c0 18 0d 0a 3d a2 a9 aa 3d 4f 95 76 bd be bb ed 3c
       0.033703893 0.08333136 -0.060200986 0.029020187
0002d0 ca b3 d0 bd 30 85 05 be 48 2e db bd b2 7c 77 bd
       -0.10190542 -0.13039088 -0.10702187 -0.060421653
0002e0 4f e9 14 be 15 08 11 be 9d 72 73 bd 8e 46 b9 bd
       -0.14542125 -0.1416324 -0.059435476 -0.0904666
0002f0 f6 89 ec bc cb dd 5c bd 3d a3 01 3e c7 51 9f bd
       -0.028874379 -0.053922456 0.12659927 -0.0777927
000300 a5 e6 07 3c 10 8c a0 3d fe 40 04 bc 37 5e ea bd
       0.008294736 0.07839215 -0.008072136 -0.11443751
000310 4f 6a 1d be 4f 25 93 bd 67 9b 08 be ba 96 96 bd
       -0.15372585 -0.071848504 -0.13340531 -0.073529676
000320 c9 a5 ba 3d 35 1a c2 bd df ac 27 3d 0f 31 f2 3c
       0.09113652 -0.09477655 0.040936347 0.029564409
000330 33 70 ab bd 05 5c fb bd 77 fd b0 3c 79 34 88 3d
       -0.0837101 -0.12273411 0.021605236 0.06650633
000340 05 38 b8 bd 6c af bd 3d 8f 0e 58 3d b1 3d 87 3d
       -0.0899506 0.09261975 0.05274826 0.066035636
000350 aa cd dd 3d a7 84 95 3c 22 e3 84 3d 1b 76 00 3e
       0.10830243 0.01825173 0.06488635 0.12545054
000360 03 7e 26 3d 54 b8 77 bd b8 90 ac bc b3 9c cd bd
       0.040647518 -0.060478523 -0.021065101 -0.10039654
000370 eb ad 0d be e6 4c c5 3c ec 61 e4 3d b0 69 b9 bd
       -0.13835876 0.02408452 0.111514896 -0.090533614
000380 3d b9 f1 bc 5f 80 ed bd bb ce fe bd bc ca 30 bd
       -0.029507274 -0.115967505 -0.124417745 -0.043162093
000390 fe 56 ca bd a8 dc 76 3d 47 c4 56 3c d7 d5 f2 3c
       -0.09879874 0.060269028 0.01310832 0.029642982
0003a0 64 b5 94 bd e0 78 99 3d 39 43 5e 3d b5 cc 88 bd
       -0.0726116 0.07493758 0.054263327 -0.0667967
0003b0 ec 21 1a 3e 93 91 37 3d ef 4e 40 3c 33 cd be bd
       0.15052003 0.044816565 0.011737569 -0.093164824
0003c0 bc c0 b3 3d e6 ba 44 3d 59 50 18 be b1 73 0d bd
       0.087769955 0.048029803 -0.148744 -0.03453416
0003d0 3e 82 6a 3d b4 2d d0 bd c8 d1 db 3d 34 c4 71 3d
       0.057253115 -0.10164967 0.10733372 0.059025005
0003e0 99 48 a5 bd 8b 2c b4 3d 02 a9 ba 3d 46 ec d1 3d
       -0.080704875 0.087975584 0.09114267 0.10250144
0003f0 c7 a5 16 be d0 23 3a bd b5 92 83 bc 6d 43 c7 3d
       -0.14711677 -0.04544431 -0.016061166 0.09729657

fc1.3.bias f4 [2]
000000 09 ea ab bc 68 bc 1c bd
       -0.02098562 -0.038265616

exp_avg f4 [64, 60, 3]
000000 a3 ff a3 b8 d6 b7 21 37 7a dc 79 37 29 03 6e b8
       -7.820062e-05 9.63915e-06 1.489289e-05 -5.6746565e-05
000010 6a ce 85 b6 9f ba bf 37 c1 40 9e b8 d6 09 58 b7
       -3.9877386e-06 2.2855877e-05 -7.5460885e-05 -1.2876893e-05
000020 7c 1d 97 36 ef 3b 95 b8 07 84 07 b8 c9 af a6 b7
       4.503583e-06 -7.116037e-05 -3.230947e-05 -1.9870598e-05
000030 b4 d6 33 b8 e4 f2 2b b8 25 66 c9 b7 6a 9b 25 b7
       -4.2876884e-05 -4.0995787e-05 -2.4008632e-05 -9.8709515e-06
000040 01 a2 99 b8 4a 85 b5 b7 12 68 e6 37 c2 58 c3 b8
       -7.325784e-05 -2.1638949e-05 2.7466598e-05 -9.314857e-05
000050 d3 6e e1 b7 35 ec a7 37 c6 42 be b8 72 66 e8 b7
       -2.6873697e-05 2.0017944e-05 -9.0723435e-05 -2.770426e-05
000060 e7 6b 0e 38 69 80 bd b8 ca b0 d3 b7 ae 93 b2 36
       3.395593e-05 -9.0361405e-05 -2.5235484e-05 5.3220056e-06
000070 0a 3e 77 b8 59 39 9c b7 af 38 27 b8 8b a9 b2 b7
       -5.8947167e-05 -1.8623354e-05 -3.9868693e-05 -2.1298203e-05
000080 51 b7 4d b7 bd db e8 b8 62 5d 51 b3 9c 00 6a b8
       -1.2261634e-05 -0.000111035515 -4.8746536e-08 -5.5790515e-05
000090 8f dd 0e b9 69 75 ef 37 10 7a ea b7 57 c3 26 b9
       -0.00013624712 2.8545694e-05 -2.7951814e-05 -0.00015903763
0000a0 e6 7a 15 38 fb a0 4a b8 1b 61 58 b9 e2 b7 77 38
       3.5638826e-05 -4.8310478e-05 -0.0002063554 5.9060643e-05
0000b0 76 60 30 b8 a6 af 4c b9 ca a3 b3 38 22 51 e1 b7
       -4.2051506e-05 -0.0001952039 8.565893e-05 -2.685987e-05
0000c0 91 a1 6c b9 5e 15 c7 38 26 ff 01 b7 aa 03 5a b9
       -0.00022566902 9.4930394e-05 -7.748406e-06 -0.00020791465
0000d0 80 24 ad 38 70 bf 03 b7 d0 77 36 b9 a4 cf 81 38
       8.2560815e-05 -7.852781e-06 -0.00017401506 6.1898754e-05
0000e0 b8 f2 d4 37 d0 d1 91 b9 1d 9c 88 38 f9 de da b7
       2.5385394e-05 -0.00027812878 6.514064e-05 -2.6091455e-05
0000f0 ba 95 71 b9 98 ad 6d 38 51 e4 7d b8 74 2c 55 b9
       -0.00023039329 5.6666875e-05 -6.0532537e-05 -0.00020329823
000100 82 59 9c 37 9c 57 ad b7 39 36 f3 b8 4a 9d 4d b7
       1.863833e-05 -2.0664003e-05 -0.00011597243 -1.2255574e-05
000110 dd d5 65 b8 a3 b8 6e b8 82 bb 14 b8 4c c3 b2 b7
       -5.479703e-05 -5.6915578e-05 -3.546058e-05 -2.1310196e-05
000120 14 cd 1f b8 49 ed 4f b8 a2 df 67 b8 c6 ff d3 b6
       -3.8099548e-05 -4.9573635e-05 -5.5282966e-05 -6.318066e-06
000130 64 5c 66 b8 e8 91 32 b7 b6 ca e6 36 ee ac 52 b8
       -5.492232e-05 -1.0643598e-05 6.878133e-06 -5.0228955e-05
000140 bc 65 f9 b7 e9 ad a8 b7 a2 eb 17 b8 37 a3 d2 b7
       -2.9730487e-05 -2.0108144e-05 -3.6220656e-05 -2.5109954e-05
000150 4c 10 19 b8 fd 83 28 b8 32 1c 04 b8 8f 98 00 b9
       -3.649322e-05 -4.0177245e-05 -3.149751e-05 -0.00012263864
000160 8c 4d 13 b8 86 4c f7 b7 d6 cd cc b8 b8 b9 3e b8
       -3.5119752e-05 -2.9480329e-05 -9.765818e-05 -4.5472494e-05
000170 19 0b 5d b8 18 7a 1b b9 70 17 b8 b6 5b 42 fe b7
       -5.270084e-05 -0.00014827435 -5.486356e-06 -3.0310059e-05
000180 0d 9f 8e b8 dd 2f c6 36 99 da 84 b6 f3 d5 99 b8
       -6.800713e-05 5.906432e-06 -3.9593547e-06 -7.33546e-05
000190 aa d5 0a 38 49 fe 0e b7 6d c9 58 b8 68 bf 2a 38
       3.3100754e-05 -8.523065e-06 -5.1686005e-05 4.070942e-05
0001a0 cd f4 27 37 58 9d b1 b8 d6 16 3b 38 13 86 99 b6
       1.0010973e-05 -8.469325e-05 4.4605542e-05 -4.5753636e-06
0001b0 80 15 c0 b8 cc 6f 3e 38 19 b0 c9 b7 29 b6 8f b8
       -9.159278e-05 4.540365e-05 -2.4043069e-05 -6.852701e-05
0001c0 b1 f0 bc 37 0f ed 00 b8 99 8c 2d b8 0e 84 d7 36
       2.2523427e-05 -3.0738356e-05 -4.1377356e-05 6.4228725e-06
0001d0 8a 1a 81 b7 30 37 80 b7 80 b5 de b6 26 41 b1 b7
       -1.5390357e-05 -1.5284488e-05 -6.637245e-06 -2.1130381e-05
0001e0 1b 5a 21 b8 9c 60 a2 b7 b0 da b2 b7 7c ce 04 37
       -3.846931e-05 -1.9356892e-05 -2.1321088e-05 7.915889e-06
0001f0 71 bd 39 b8 e7 1b 08 37 1c 1d e5 b7 31 f8 22 b8
       -4.428387e-05 8.112728e-06 -2.7312482e-05 -3.8854956e-05
000200 89 d1 75 b7 af de f6 b7 8c 29 38 b8 3b 8a 2d b8
       -1.4651924e-05 -2.942918e-05 -4.3907712e-05 -4.137515e-05
000210 a9 21 28 b8 51 13 f4 b7 c1 c8 ac b8 fd 47 04 38
       -4.008567e-05 -2.9096062e-05 -8.2389925e-05 3.1538297e-05
000220 14 e8 7a b8 3c db 4c b8 2c 89 f5 37 85 28 6a b8
       -5.9820784e-05 -4.8841568e-05 2.9270152e-05 -5.5827684e-05
000230 e0 48 45 b8 fc 14 49 37 64 2d 81 b8 d3 cf 18 b8
       -4.703633e-05 1.1985419e-05 -6.159654e-05 -3.6433175e-05
000240 8d cf 34 b8 e0 ad 15 b8 69 24 a6 b8 43 3c 56 b8
       -4.310864e-05 -3.5686302e-05 -7.922279e-05 -5.10777e-05
000250 88 ab 01 b5 9d c0 af b8 80 df 8c b8 b1 c1 b9 37
       -4.8305856e-07 -8.380527e-05 -6.71735e-05 2.2143913e-05
000260 f3 c4 ae b8 88 01 c0 b8 23 7f 32 38 05 1f b0 b8
       -8.333651e-05 -9.155559e-05 4.2556912e-05 -8.398112e-05
000270 cd 47 c9 b8 ef 77 53 38 d3 6c 9f b8 9c 69 aa b8
       -9.597801e-05 5.0418017e-05 -7.601981e-05 -8.125903e-05
000280 6e da 81 37 a9 85 03 b8 56 c6 c8 b8 8c 02 a5 37
       1.5479713e-05 -3.1357315e-05 -9.573686e-05 1.9670719e-05
000290 f9 47 76 b7 9c d5 cb b8 cc a3 bd b5 94 c2 83 b6
       -1.46795e-05 -9.719582e-05 -1.4129268e-06 -3.926756e-06
0002a0 82 5b 8b b8 97 76 3b b7 57 f9 96 b7 d0 8e 1d b8
       -6.645081e-05 -1.117368e-05 -1.7997501e-05 -3.756472e-05
0002b0 b9 9a f0 b7 57 93 ba 36 b4 82 30 b8 cb bf da b7
       -2.8682278e-05 5.5603846e-06 -4.2083397e-05 -2.6076936e-05
0002c0 76 22 f9 34 37 6b 79 b8 1a c2 2a b7 2a bd b2 b6
       4.6404938e-07 -5.9466078e-05 -1.0177982e-05 -5.326835e-06
0002d0 f2 05 61 b7 78 bb c7 37 4f 9c 3d b8 8a d0 0e 36
       -1.3412429e-05 2.3809946e-05 -4.5206685e-05 2.1281035e-06
0002e0 36 6f 26 36 1e b8 c2 b7 aa fa 05 37 b6 2e 64 b7
       2.480066e-06 -2.3212338e-05 7.98578e-06 -1.3600735e-05
0002f0 1b b7 46 b8 66 3a 37 36 9c 2c 3a b8 c6 5e 93 b8
       -4.737741e-05 2.7303117e-06 -4.43874e-05 -7.027159e-05
000300 16 69 cb 37 8a 5c 3b b8 d2 4c 80 b8 2b c7 4c 38
       2.424842e-05 -4.4670458e-05 -6.1178245e-05 4.882288e-05
000310 08 c2 5f b8 e4 e8 88 b8 16 7c c5 38 e1 ce 48 b8
       -5.334805e-05 -6.5283646e-05 9.416805e-05 -4.7876387e-05
000320 cf dc 49 b8 ce ae e7 38 e1 15 02 b8 a8 0f 8f b8
       -4.812778e-05 0.00011047498 -3.101479e-05 -6.8216876e-05
000330 77 d8 e1 38 74 41 8f b7 bd f4 86 b8 11 86 c5 38
       0.00010769156 -1.7077407e-05 -6.435204e-05 9.418664e-05
000340 aa ba bb 35 6d 96 aa b8 51 2e 8e 38 d2 26 60 37
       1.3986912e-06 -8.134251e-05 6.779715e-05 1.3360479e-05
000350 41 49 ec b8 2c ec e7 37 d0 d5 10 37 70 20 44 b9
       -0.000112670015 2.7647322e-05 8.632851e-06 -0.000187041
000360 05 26 b8 32 4b 2d f5 37 de af 3d b9 c2 f0 1c b8
       2.1437708e-08 2.9227367e-05 -0.0001808996 -3.741752e-05
000370 ff 11 35 38 61 41 3b b9 79 b4 86 b8 6d e0 61 38
       4.3170523e-05 -0.00017858065 -6.4232336e-05 5.3853193e-05
000380 fa 29 53 b9 61 91 9f b8 a8 8b aa 38 c5 48 16 b9
       -0.00020138166 -7.60879e-05 8.132245e-05 -0.00014332224
000390 01 f1 ba b8 81 ed 9c 38 ac b0 22 b9 56 79 c2 b8
       -8.9140616e-05 7.482898e-05 -0.0001551534 -9.2732414e-05
0003a0 f4 5e 8a 38 c0 55 06 b9 c4 5e cc b8 93 ca 77 38
       6.598039e-05 -0.0001281118 -9.7451295e-05 5.907805e-05
0003b0 7a ca cb b8 08 1d be b8 e1 f7 c3 37 c2 1b 60 b9
       -9.7175085e-05 -9.0653135e-05 2.3361239e-05 -0.00021372645
0003c0 0e 5c 5b b8 9d c5 6b 37 3c 65 40 b9 8c 14 f4 b7
       -5.22994e-05 1.4053102e-05 -0.0001834826 -2.9096635e-05
0003d0 ea 0b 10 b7 ab cb 57 b9 13 e4 3f 37 83 29 94 b7
       -8.585843e-06 -0.0002057987 1.143759e-05 -1.7662305e-05
0003e0 db 14 08 b9 9f 0b 2e 38 ee c4 7a b7 44 1f bf b8
       -0.0001297774 4.1495656e-05 -1.49470125e-05 -9.1134134e-05
0003f0 76 7c 92 38 c9 60 b8 b7 cb 82 8c b8 0c 3c 95 38
       6.985005e-05 -2.1979578e-05 -6.700082e-05 7.116058e-05

exp_avg_sq f4 [64, 60, 3]
000000 7d 82 11 33 dc 3b 82 33 d6 e1 fa 33 9a e7 5a 33
       3.387912e-08 6.064485e-08 1.16826115e-07 5.096772e-08
000010 f6 54 6d 33 75 1b 2e 33 63 b2 8b 33 d9 f1 8e 33
       5.5258134e-08 4.0537504e-08 6.50514e-08 6.656382e-08
000020 a7 c0 31 33 0f 81 8f 33 84 85 ba 33 45 a9 6c 33
       4.138624e-08 6.682432e-08 8.685586e-08 5.510198e-08
000030 68 39 91 33 5d aa ed 33 7e 2c 19 34 77 78 8c 33
       6.762531e-08 1.10671614e-07 1.4265422e-07 6.5411704e-08
000040 eb ec dd 33 b8 03 5b 34 ca bf dc 33 80 bf b6 33
       1.03342096e-07 2.0397317e-07 1.02794345e-07 8.509869e-08
000050 4e 8f b7 34 eb 41 ca 33 70 e2 87 33 ba 09 a5 34
       3.4190674e-07 9.4183484e-08 6.327616e-08 3.0740722e-07
000060 33 20 9d 33 ee 7a 5f 33 dd 13 3c 34 df 3c 60 33
       7.316739e-08 5.2033037e-08 1.751609e-07 5.2209426e-08
000070 9b 26 28 33 a9 6c 86 33 e3 76 44 33 d3 66 29 33
       3.915066e-08 6.2596264e-08 4.5742933e-08 3.9441897e-08
000080 17 0d ad 33 23 0d 4f 33 6f f6 40 33 69 36 4c 34
       8.058321e-08 4.820789e-08 4.4927614e-08 1.9018775e-07
000090 13 b3 67 33 e7 fc 4d 33 a7 25 bc 34 92 1a 9b 33
       5.3946746e-08 4.7960295e-08 3.5045124e-07 7.222583e-08
0000a0 55 49 6c 33 bc fd a0 34 bc 17 a5 33 0c b4 70 33
       5.5014727e-08 2.9986938e-07 7.6877285e-08 5.6043106e-08
0000b0 9e 28 ae 34 87 cf a8 33 b3 2b 3a 33 af 5f 90 34
       3.2439578e-07 7.8608586e-08 4.3346244e-08 2.689171e-07
0000c0 db 2b 90 33 59 67 16 33 22 7e 21 34 0b e2 6d 33
       6.7135e-08 3.501859e-08 1.504018e-07 5.5386447e-08
0000d0 8b 10 72 33 7d 3f c6 33 12 12 86 33 f2 f8 c0 33
       5.636006e-08 9.231642e-08 6.243148e-08 8.9859796e-08
0000e0 b2 6d 8f 33 68 0f b3 33 ef 14 ee 33 c3 79 8a 33
       6.67891e-08 8.3381394e-08 1.10865464e-07 6.448274e-08
0000f0 39 0d b8 33 ef 1e e6 33 ba 0e f2 33 3d 30 b8 33
       8.570573e-08 1.07158364e-07 1.1271682e-07 8.576942e-08
000100 b4 7d ac 33 a8 31 5a 34 71 d4 90 33 f2 86 41 33
       8.0322394e-08 2.0320897e-07 6.7441654e-08 4.5059046e-08
000110 c3 01 6a 34 fb d8 8d 33 e0 09 d2 32 f3 13 23 34
       2.1793589e-07 6.605293e-08 2.4451708e-08 1.5187815e-07
000120 23 71 6e 33 f0 09 f7 32 fb 92 17 34 2c 91 4b 33
       5.551659e-08 2.8759104e-08 1.4116442e-07 4.7396654e-08
000130 63 cf 4e 33 59 65 08 34 6f 57 38 33 b6 6d 6b 33
       4.815173e-08 1.2702857e-07 4.292036e-08 5.4814983e-08
000140 91 a4 8e 33 74 d0 12 33 43 4b 47 33 e5 5e 52 33
       6.642325e-08 3.418286e-08 4.6401748e-08 4.898074e-08
000150 ee fb 10 33 be 8a 54 33 e2 2d 8b 33 02 da 42 33
       3.375674e-08 4.948628e-08 6.481038e-08 4.5367422e-08
000160 6c 85 62 33 3e 05 65 33 ed fe 55 33 93 b2 93 33
       5.2741072e-08 5.3322985e-08 4.982478e-08 6.8777034e-08
000170 ac 8a e3 33 de e8 8b 33 40 27 83 33 17 17 05 34
       1.05957355e-07 6.51505e-08 6.1073024e-08 1.239499e-07
000180 52 fe 6f 33 1a 1e 82 33 bf 72 d8 33 c6 18 af 33
       5.5877827e-08 6.059072e-08 1.0079156e-07 8.153579e-08
000190 9d b3 84 33 d1 c1 c7 33 76 cd 99 33 fd 9d 4d 33
       6.1794005e-08 9.3019146e-08 7.161991e-08 4.787397e-08
0001a0 87 1a ed 33 74 93 36 33 a7 e5 45 33 5f 59 c2 33
       1.1040998e-07 4.2509285e-08 4.6076504e-08 9.0500855e-08
0001b0 0f 21 2a 33 c6 49 bf 33 1a 80 55 33 20 38 b9 32
       3.9611276e-08 8.90755e-08 4.9709435e-08 2.1562357e-08
0001c0 67 45 fd 33 e6 84 b7 33 a0 18 02 33 65 c0 06 34
       1.1793855e-07 8.5457756e-08 3.029038e-08 1.2549715e-07
0001d0 30 87 43 34 c0 ea 67 33 27 c9 d7 33 2c 43 81 34
       1.8209971e-07 5.3997383e-08 1.0048307e-07 2.4076996e-07
0001e0 20 b5 95 33 46 ae 8a 33 48 d0 43 34 05 18 4f 33
       6.9712996e-08 6.457826e-08 1.8236562e-07 4.821779e-08
0001f0 e5 b4 20 33 28 93 d3 33 a4 c8 00 33 5f aa 50 33
       3.7417426e-08 9.852221e-08 2.9984804e-08 4.8583725e-08
000200 02 7e 5e 33 a7 9a b1 32 ee 06 89 33 a0 df 43 33
       5.1803006e-08 2.067584e-08 6.38082e-08 4.560536e-08
000210 5c ca f6 32 4f 3c a0 33 36 d1 0d 33 b0 bb d5 32
       2.8730192e-08 7.461551e-08 3.3019397e-08 2.4881814e-08
000220 44 04 a4 33 96 b6 58 33 c7 4f ee 32 1f a3 c1 33
       7.637621e-08 5.045748e-08 2.7743125e-08 9.0169344e-08
000230 90 f3 04 34 ed b6 0f 33 ba 33 c0 33 33 6f 33 34
       1.2382066e-07 3.3461152e-08 8.950106e-08 1.6711128e-07
000240 39 50 22 33 06 d0 a4 33 4f 03 61 34 6c ab 3e 33
       3.7791526e-08 7.674684e-08 2.0955962e-07 4.439373e-08
000250 77 70 5f 33 93 39 50 34 5b f5 45 33 70 99 6d 33
       5.202352e-08 1.9392455e-07 4.6090786e-08 5.5320413e-08
000260 c4 f8 4c 34 17 37 48 33 11 53 83 33 a1 78 2c 34
       1.9089481e-07 4.6616233e-08 6.1152726e-08 1.6062633e-07
000270 a8 3e 24 33 be d6 a6 33 78 4e a2 33 ec da 44 33
       3.824121e-08 7.769039e-08 7.557986e-08 4.5833914e-08
000280 25 e9 b5 33 01 8f 3f 33 2e c1 b0 33 f8 cf c3 33
       8.470878e-08 4.4600714e-08 8.230778e-08 9.1182244e-08
000290 a9 e8 55 33 e9 57 e4 33 0b 25 c8 33 7d 02 1e 34
       4.980453e-08 1.0633068e-07 9.319964e-08 1.4715802e-07
0002a0 14 90 a0 33 34 83 8d 33 74 c3 1e 34 7e 84 19 33
       7.476788e-08 6.58969e-08 1.4786002e-07 3.574359e-08
0002b0 ff 11 4d 33 54 e5 12 34 ea 63 c1 32 95 41 2e 33
       4.774665e-08 1.3680739e-07 2.2513593e-08 4.057218e-08
0002c0 10 ff 9f 33 a4 5e b5 32 a2 24 54 33 7c 5e 20 33
       7.45041e-08 2.111421e-08 4.9393414e-08 3.7338836e-08
0002d0 57 1c 98 33 2b 79 c4 33 04 2d 57 34 b2 f3 49 33
       7.0832066e-08 9.1490016e-08 2.0039812e-07 4.70206e-08
0002e0 12 b6 bd 33 5e e7 73 34 af 11 39 33 18 08 b7 33
       8.834117e-08 2.271531e-07 4.3089752e-08 8.523074e-08
0002f0 77 8c 9b 34 d7 e8 2c 33 17 95 bd 33 6a 21 9f 34
       2.8973201e-07 4.0258637e-08 8.8281176e-08 2.964037e-07
000300 b6 f5 81 33 99 d2 d8 33 39 11 93 34 32 98 82 33
       6.051725e-08 1.0096591e-07 2.7393415e-07 6.081281e-08
000310 81 a3 db 33 63 a0 74 34 5d 75 82 33 41 00 f2 33
       1.02277234e-07 2.2782619e-07 6.074945e-08 1.1269049e-07
000320 25 59 8b 34 a6 64 64 33 c2 82 09 34 72 48 d9 34
       2.595563e-07 5.3176926e-08 1.2806689e-07 4.047211e-07
000330 43 e9 5b 33 d3 e4 18 34 3e e4 d8 34 4d c7 64 33
       5.120206e-08 1.4239349e-07 4.0399203e-07 5.326665e-08
000340 7e 56 1c 34 c0 dd 96 34 74 55 82 33 a9 96 de 33
       1.4560098e-07 2.8101022e-07 6.0691406e-08 1.03650855e-07
000350 db 92 90 34 fc ae be 33 e8 a1 95 33 69 67 da 34
       2.6928942e-07 8.879394e-08 6.967804e-08 4.0680905e-07
000360 67 61 fd 33 e1 7e 88 33 10 f2 b8 34 bd f6 12 34
       1.1798948e-07 6.356073e-08 3.4448794e-07 1.3687072e-07
000370 56 73 8c 33 8e 84 a2 34 03 da eb 33 70 ca 9a 33
       6.5402375e-08 3.0271298e-07 1.0982696e-07 7.208007e-08
000380 43 f1 9e 34 36 d5 cc 33 1e 1d 99 33 e7 a9 a3 34
       2.9605334e-07 9.538273e-08 7.129914e-08 3.0484736e-07
000390 c9 8b a4 33 28 dd 9e 33 e7 b3 a6 34 27 54 72 33
       7.662272e-08 7.3976764e-08 3.1050806e-07 5.6421552e-08
0003a0 43 24 a1 33 02 bb 92 34 a9 43 72 33 95 69 82 33
       7.503743e-08 2.7330685e-07 5.6406552e-08 6.072802e-08
0003b0 ce fd 8e 34 99 12 60 33 1e 01 71 33 29 23 86 34
       2.6634228e-07 5.217098e-08 5.61132e-08 2.4985027e-07
0003c0 c2 07 73 33 14 08 91 33 17 a7 71 34 c3 15 93 33
       5.6584902e-08 6.753558e-08 2.2505661e-07 6.8491794e-08
0003d0 79 ad c6 33 ca 1d 4d 34 65 91 9f 33 4a d1 e3 33
       9.251648e-08 1.910295e-07 7.4304616e-08 1.0608581e-07
0003e0 0f 77 28 34 11 f3 bf 33 be 62 0b 34 21 2a 62 34
       1.5689533e-07 8.938344e-08 1.2981306e-07 2.1063217e-07
0003f0 22 20 c1 33 9b 72 01 34 7a 1b 82 34 9e 46 a6 33
       8.993108e-08 1.2055754e-07 2.423438e-07 7.7428226e-08
