training/checkpoints/fold_0/best-checkpoint.ckpt (torch, 357010 bytes, 26 tensors)

conv1.0.weight f4 [64, 60, 3]
-0.041448824 0.025061576 0.042673435 0.05834848 -0.07609286 -0.032244593 0.027124655 -0.029028835
-0.07395892 -0.021626212 0.004318451 0.07015391 -0.0076280367 -0.017282939 -0.01939936 -0.05654654
0.0059444183 0.03817685 0.01618145 0.041374728 -0.072552495 0.046789177 0.059073433 -0.017230216
-0.036422625 -0.05841672 -0.02036228 0.05204935 0.005560864 -0.039249472 -0.05531519 -0.07019815
0.020036366 -0.06166956 -0.034417767 -2.4113077e-05 -0.0772073 -0.003205765 -0.012110394 0.015863413
-0.030148214 0.029122673 0.04354429 0.010860114 0.035297193 0.005856939 -0.0017053524 0.028363388
-0.022040192 -0.06563403 0.07376394 0.0026299444 0.058102444 0.051002733 0.012689657 0.027023636
-0.03747014 0.046433534 0.04232472 -0.019649087 0.007201648 -0.07814356 0.0063329274 0.03466964
-0.035002876 0.05023538 -0.004853905 0.05281032 0.0036454513 -0.042260185 -0.013529923 -0.022148577
-0.014582524 0.032949995 -0.08726236 0.020382196 -0.044370335 -0.06996979 -0.019965768 0.06971012
-0.03187343 -0.032584626 -0.044855088 -0.07031404 -0.04042799 0.027220834 -0.030180551 -0.02711777
0.017307336 0.0318473 -0.01482037 0.06979269 0.005391554 -0.05397492 -0.025078896 0.0069995555
-0.07592261 -0.042137787 -0.050397538 0.00094228645 0.0739211 -0.07075421 -0.01073217 0.019164382
0.0061968397 -0.07223149 0.02719335 0.017863102 -0.033518445 -0.07955717 0.019152654 0.016107228
-0.09379316 -0.013684593 -0.059811257 -0.032494113 -0.01916393 0.073909014 -0.03198058 0.055641595
-0.06605777 0.023529606 -0.01757232 -0.019619409 -0.07400622 -0.02184511 0.028072175 -0.00015355648
0.029062081 0.07054552 0.04817185 0.030807747 0.009130473 0.03423584 -0.059136212 -0.05359019
0.025540367 -0.0065353345 0.031620957 0.09773488 0.033837482 0.056679007 -0.034800474 -0.013262035
-0.059243508 0.06099232 -0.0006816734 0.041438725 -0.044280827 0.034677688 -0.015425074 0.0043745553
-0.026071794 -0.06543109 0.039871037 -0.03988513 0.04275569 -0.080589615 0.028464857 0.06452146
-0.053644314 0.05045527 0.06590863 -0.08483126 -0.036902297 0.0041578966 -0.07456019 -0.04793327
0.04697647 -0.044237606 -0.040910993 0.068178065 -0.07190248 -0.054888353 -0.027103554 -0.06405318
-0.09368306 0.034163125 0.0128767835 -0.016800525 0.051049877 -0.014782186 -0.07743412 0.013432499
-0.017416894 0.020840695 -0.08209578 -0.084794916 0.026336018 0.044925213 -0.031456605 0.04287298
-0.03846609 0.0028444058 -0.06570125 0.022044979 -0.0479829 0.0021623136 0.012745041 -0.0635871
-0.017905591 -0.013981621 -0.056176 0.039139044 0.06334606 -0.0422047 -0.084300436 0.039263465
-0.092312984 -0.053820938 -0.017248284 0.06304784 -0.08386658 -0.07074371 0.033836346 0.019909145
0.028617231 -0.046593547 -0.060229 -0.08034532 -0.053808354 -0.039972655 -0.03212723 -0.030445935
-0.012036587 -0.0007596281 -0.04319652 -0.050446484 -0.025232341 -0.07293469 -0.048355952 -0.02156417
0.05562379 0.019049952 0.026924489 0.055840023 -0.010458819 0.052199192 0.07576758 0.05761816
-0.075928695 0.07153933 0.004278037 -0.007572056 -0.047154933 -0.05450886 -0.012361355 -0.024346646
-0.01459675 0.04482911 -0.0438346 0.013286649 -0.0074945954 -0.05266946 0.011586569 0.0104149245
00000000: 3ec6 29bd ef4d cd3c 57ca 2e3d d1fe 6e3d
00000010: 93d6 9bbd e812 04bd 8634 de3c e1cd edbc
00000020: c677 97bd 7429 b1bc cb81 8d3b daac 8f3d
00000030: 9cf4 f9bb f394 8dbc 68eb 9ebc 589d 67bd
00000040: 65c9 c23b 545f 1c3d f68e 843c 8c78 293d
00000050: 6796 94bd 02a6 3f3d fcf6 713d 6226 8dbc
00000060: e42f 15bd 5f46 6fbd ccce a6bc b331 553d
00000070: e937 b63b 0ec4 20bd 2e92 62bd 0cc4 8fbd
00000080: 4e23 a43c 3899 7cbd a5f9 0cbd 7046 cab7
00000090: dc1e 9ebd d017 52bb ad6a 46bc fdf3 813c
000000a0: 63f9 f6bc ac92 ee3c 7f5b 323d 9fee 313c
000000b0: ca93 103d 91eb bf3b 2286 dfba 565a e83c
000000c0: a28d b4bc 226b 86bd 8c11 973d 255b 2c3b
000000d0: d4fc 6d3d 3ee8 503d 47e8 4f3c ac60 dd3c
000000e0: 4a7a 19bd 1731 3e3d b05c 2d3d 1ff7 a0bc
000000f0: cdfb eb3b bb09 a0bd 7284 cf3b c101 0e3d
00000100: 2d5f 0fbd 9dc3 4d3d 820d 9fbb a24f 583d
00000110: 86e8 6e3b 0419 2dbd 9cac 5dbc ef70 b5bc
00000120: 8aeb 6ebc 93f6 063d 9cb6 b2bd 90f8 a63c
00000130: abbd 35bd 524c 8fbd 408f a3bc 2ec4 8e3d
00000140: b78d 02bd 7577 05bd f8b9 37bd cf00 90bd
00000150: d297 25bd 3afe de3c 343d f7bc 1626 debc
00000160: 1dc8 8d3c 5072 023d 23d1 72bc 78ef 8e3d
00000170: a2ab b03b ce14 5dbd 4272 cdbc 875c e53b
00000180: 507d 9bbd ac98 2cbd a66d 4ebd c603 773a
00000190: f263 973d 95e7 90bd fcd5 2fbc 9ffe 9c3c
000001a0: dc0e cb3b 1aee 93bd 97c4 de3c a455 923c
000001b0: a34a 09bd dfee a2bd 07e6 9c3c 4ef3 833c
000001c0: a116 c0bd 5835 60bc a6fc 74bd 8c18 05bd
000001d0: adfd 9cbc 9c5d 973d 12fe 02bd 71e8 633d
000001e0: 4c49 87bd 29c1 c03c d3f3 8fbc e2b8 a0bc
000001f0: 9390 97bd 84f4 b2bc 9ef7 e53c 0104 21b9
00000200: 9a13 ee3c 2b7a 903d d94f 453d 8760 fc3c
00000210: fb97 153c e13a 0c3d d038 72bd 6381 5bbd
00000220: 083a d13c 5c26 d6bb fa84 013d 3a29 c83d
00000230: 2c99 0a3d 3f28 683d f18a 0ebd 0249 59bc
00000240: 52a9 72bd 15d3 793d 54b2 32ba a7bb 293d
00000250: d05f 35bd 310a 0e3d 73b9 7cbc 6e58 8f3b
00000260: 8494 d5bc bc00 86bd d04f 233d 975e 23bd
00000270: 9720 2f3d 2b0c a5bd 222f e93c d423 843d
00000280: 24ba 5bbd 2faa 4e3d 1bfb 863d 03bc adbd
00000290: dd26 17bd f73e 883b 03b3 98bd ad55 44bd
000002a0: 666a 403d 7e32 35bd 4992 27bd f1a0 8b3d
000002b0: 9c41 93bd 9cd2 60bd 4608 debc 502e 83bd
000002c0: e7dc bfbd a2ee 0b3d 25f9 523c 41a1 89bc
000002d0: ad19 513d fb30 72bc c895 9ebd fc13 5c3c
000002e0: e0ad 8ebc 1bba aa3c d521 a8bd f5a8 adbd
000002f0: a2be d73c 8003 383d a4d8 00bd 949b 2f3d
00000300: 9e8e 1dbd 3669 3a3b 618e 86bd ac97 b43c
00000310: b889 44bd 9ab5 0d3b 94d0 503c f439 82bd
00000320: bfae 92bc 2b13 65bc ce18 66bd 4350 203d
00000330: 94bb 813d d6de 2cbd b5a5 acbd bad2 203d
00000340: 970e bdbd 5873 5cbd 464c 8dbc 3a1f 813d
00000350: 3ec2 abbd 14e2 90bd fb97 0a3d 8118 a33c
00000360: af6e ea3c e0d8 3ebd afb2 76bd 168c a4bd
00000370: 2666 5cbd 5eba 23bd d897 03bd c169 f9bc
00000380: 1b35 45bc c721 47ba d6ee 30bd f9a0 4ebd
00000390: 0eb4 cebc c85e 95bd e410 46bd 58a7 b0bc
000003a0: c5d5 633d a50e 9c3c bf90 dc3c 82b8 643d
000003b0: 775b 2bbc d2ce 553d 082c 9b3d 0501 6c3d
000003c0: 8180 9bbd 3683 923d c72e 8c3b 021f f8bb
000003d0: 8825 41bd af44 5fbd 4887 4abc 9e72 c7bc
000003e0: 3527 6fbc bb9e 373d e98b 33bd 3fb0 593c
000003f0: 3995 f5bb efbb 57bd 98d5 3d3c 5ca3 2a3c

conv1.0.bias f4 [64]
-6.4906675e-07 1.7500392e-06 7.676952e-06 -3.6454703e-06 0.00018129022 -3.2970345e-06 -6.4427586e-05 -2.2389333e-06
8.8302386e-07 1.1624898e-05 -5.744132e-06 -8.430248e-06 -2.657248e-06 0.00019937754 1.2896971e-06 3.5834241e-06
5.3057593e-06 -7.305783e-06 2.0237562e-06 1.2197543e-06 -1.3940609e-05 -5.41549e-06 0.00014085315 -3.269212e-07
-5.568392e-07 1.3760464e-05 -7.780611e-06 2.9927045e-07 -2.9890844e-06 5.070805e-06 -5.7426934e-07 -0.00019118456
-7.0457786e-06 -1.4567648e-06 0.00015685271 4.1660182e-06 9.981363e-06 -1.4467109e-06 6.8506265e-06 -1.775607e-06
4.6927397e-08 -1.4389241e-06 1.37222305e-05 -1.1861358e-05 6.0316543e-06 -7.067288e-07 -4.4800927e-06 5.007637e-07
1.0532229e-05 -4.8089346e-06 4.2665397e-06 -4.054599e-06 -2.2606887e-06 -8.114612e-06 -1.5913665e-06 -1.2122855e-06
-6.5930567e-06 0.00015850269 1.9138936e-06 5.1510774e-06 1.4336223e-06 -0.00019557941 1.0802622e-06 -4.337187e-07
00000000: 873b 2eb5 e4e2 ea35 42cc 0037 b4a4 74b6
00000010: b918 3e39 9f42 5db6 4c1d 87b8 9540 16b6
00000020: f008 6d35 8f08 4337 b8bd c0b6 a46f 0db7
00000030: 2c53 32b6 0010 5139 a819 ad35 c27a 7036
00000040: 2008 b236 3324 f5b6 decf 0736 70b6 a335
00000050: 76e2 69b7 b4b6 b5b6 fbb1 1339 b583 afb4
00000060: b379 15b5 bedc 6637 7889 02b7 6bab a034
00000070: 1498 48b6 e225 aa36 7d27 1ab5 b778 48b9
00000080: c76a ecb6 0f86 c3b5 d478 2439 d3c9 8b36
00000090: a175 2737 9c2c c2b5 6fde e536 6451 eeb5
000000a0: 388d 4933 0e21 c1b5 8838 6637 2500 47b7
000000b0: 8463 ca36 09b6 3db5 b453 96b6 386c 0635
000000c0: 94b3 3037 6f5c a1b6 4c29 8f36 bd0c 88b6
000000d0: 56b6 17b6 fe23 08b7 f096 d5b5 d0b5 a2b5
000000e0: ed39 ddb6 be33 2639 7170 0036 6bd7 ac36
000000f0: e36a c035 7314 4db9 87fd 9035 d8d9 e8b4

conv1.1.weight f4 [64]
1.002547 1.0360867 1.028666 1.0411125 1.0266807 0.9959781 1.025746 1.0222452
1.0103465 0.9992756 1.0257353 1.042315 1.018792 1.0181476 1.0372858 1.0771108
1.0340114 1.0222044 1.0114157 0.9959509 1.0690786 1.0225308 1.0051438 1.0361377
1.0106696 1.0232705 1.0646793 1.0330592 1.0197681 1.0579137 1.0245165 1.0208346
1.027691 1.0411023 1.037558 1.0500181 1.0908192 1.0521883 1.0083885 1.0382755
1.0351607 1.0254402 1.0224501 1.0253866 1.0221962 1.0964464 1.0798051 0.9915759
1.0310664 0.9934677 1.0307657 1.0138499 0.994384 1.050371 1.0130516 1.0292443
1.0450333 0.999329 1.0545442 1.0224018 1.0318122 1.0788889 1.0479227 1.0170059
00000000: 7653 803f 7d9e 843f 54ab 833f 2d43 853f
00000010: 466a 833f 6cf8 7e3f a54b 833f eed8 823f
00000020: 0953 813f 87d0 7f3f 4b4b 833f 946a 853f
00000030: c767 823f a952 823f c8c5 843f c4de 893f
00000040: 7c5a 843f 98d7 823f 1276 813f a3f6 7e3f
00000050: 91d7 883f 4ae2 823f 8da8 803f 29a0 843f
00000060: 9f5d 813f 87fa 823f 6947 883f 493b 843f
00000070: c387 823f b769 873f 5b23 833f b5aa 823f
00000080: 618b 833f d742 853f b3ce 843f fe66 863f
00000090: f79f 8b3f 1bae 863f e012 813f 36e6 843f
000000a0: 2580 843f a041 833f a5df 823f de3f 833f
000000b0: 53d7 823f 5b58 8c3f 0e37 8a3f ebd7 7d3f
000000c0: fcf9 833f e653 7e3f 21f0 833f d5c5 813f
000000d0: f38f 7e3f 8f72 863f adab 813f 47be 833f
000000e0: a7c3 853f 06d4 7f3f 4efb 863f 10de 823f
000000f0: 6c12 843f 0819 8a3f 5522 863f 402d 823f

conv1.1.bias f4 [64]
-0.055344738 -0.042045996 -0.061119303 -0.060242157 -0.04373972 -0.06084511 -0.056972187 -0.050472975
-0.06399778 -0.06119328 -0.051956177 -0.042885955 -0.05196918 -0.054973938 -0.058250736 0.093334295
-0.05205494 -0.05449353 -0.0600104 -0.048987735 0.09261752 -0.05965316 -0.061473407 -0.055785216
-0.04754405 -0.06100998 0.09371576 -0.055515032 -0.048818633 0.081750445 -0.0541986 -0.053748578
-0.051894587 -0.043090317 -0.04553119 0.0036929627 0.08381617 -0.06035752 -0.06346002 -0.04623904
-0.042063113 -0.05032791 -0.065712914 -0.053508643 -0.059285153 0.03012746 0.024479717 -0.057307493
-0.0647196 -0.051489726 -0.02250795 -0.057215273 -0.0027319437 -0.011029942 -0.0595468 -0.053495504
-0.053737797 -0.061308384 0.084127106 -0.051751763 -0.05633642 0.09126177 -0.024110554 -0.04083768
00000000: 2ab1 62bd 6c38 2cbd 3c58 7abd 7bc0 76bd
00000010: 6c28 33bd b938 79bd ab5b 69bd c0bc 4ebd
00000020: 4511 83bd cea5 7abd 00d0 54bd 2fa9 2fbd
00000030: a3dd 54bd 5a2c 61bd 5398 6ebd 0d26 bf3d
00000040: 9037 55bd 9c34 5fbd 77cd 75bd 5da7 48bd
00000050: 41ae bd3d df56 74bd 8acb 7bbd 0a7f 64bd
00000060: 8dbd 42bd 9ae5 79bd 0cee bf3d bb63 63bd
00000070: 0cf6 47bd c76c a73d 5aff 5dbd 7827 5cbd
00000080: 6b8f 54bd 797f 30bd ea7e 3abd a205 723b
00000090: d0a7 ab3d 7239 77bd 54f7 81bd 2665 3dbd
000000a0: 5f4a 2cbd a324 4ebd 7e94 86bd e12b 5bbd
000000b0: fdd4 72bd ddcd f63c b089 c83c 43bb 6abd
000000c0: b68b 84bd e4e6 52bd 9862 b8bc 905a 6abd
000000d0: 690a 33bb eeb6 34bc 58e7 73bd 1a1e 5bbd
000000e0: 2a1c 5cbd 801e 7bbd d54a ac3d a8f9 53bd
000000f0: 05c1 66bd 73e7 ba3d 7f83 c5bc 6945 27bd

conv1.1.running_mean f4 [64]
0.028298508 0.09950095 0.28375298 -0.039524633 -0.037336983 0.21739553 0.11544934 0.20069183
0.07371635 0.1359691 0.01314754 -0.038978353 0.08199899 0.09497587 0.1660301 0.09017424
0.103735454 0.31011954 0.098123096 0.098575264 -0.5653555 0.018095478 0.19554467 0.015408039
0.11700061 0.18865828 -0.5504487 0.17790547 0.08538248 -0.10512514 0.067877024 0.042075817
0.1651285 0.08260686 0.025268808 0.124727204 -0.54730856 0.09059414 0.10781163 0.12593204
0.20891346 0.08337444 0.13574071 0.1880489 0.15436266 -0.49806777 -0.36428085 0.11092109
0.18133768 0.17259416 0.04986553 0.22706085 -0.24131991 -0.036908783 0.097456336 0.11453765
0.09804303 0.03810586 -0.62805045 0.13534392 0.018606398 -0.5974564 0.14317489 0.06317186
00000000: 46d2 e73c 27c7 cb3d 1248 913e 95e4 21bd
00000010: aaee 18bd ef9c 5e3e b470 ec3d 2982 4d3e
00000020: 99f8 963d 7c3b 0b3e c868 573c c4a7 1fbd
00000030: 16ef a73d b582 c23d cb03 2a3e 46ad b83d
00000040: 4173 d43d fdc7 9e3e c3f4 c83d d4e1 c93d
00000050: 23bb 10bf f83c 943c dd3c 483e 0072 7c3c
00000060: 049e ef3d a32f 413e 35ea 0cbf da2c 363e
00000070: 02dd ae3d d94b d7bd 1c03 8b3d b157 2c3d
00000080: 7217 293e c92d a93d 8800 cf3c fa70 ff3d
00000090: 6a1c 0cbf 6c89 b93d 58cc dc3d 54f4 003e
000000a0: 69ed 553e 38c0 aa3d 9dff 0a3e e48f 403e
000000b0: 3f11 1e3e bd02 ffbe 0583 babe 992a e33d
000000c0: 96b0 393e 86bc 303e cc3f 4c3d a482 683e
000000d0: 911c 77be aa2d 17bd 3097 c73d b792 ea3d
000000e0: c9ca c83d e414 1c3d eac7 20bf 9997 0a3e
000000f0: 726c 983c e7f2 18bf 709c 123e 4060 813d

conv1.1.running_var f4 [64]
156.10262 43.0297 42.886715 174.97838 136.15182 106.404305 101.599365 158.61314
97.0014 38.967636 44.912663 109.266914 143.05528 117.74897 58.09791 34.336052
92.82106 77.65806 94.987076 103.36537 45.100685 116.47753 71.88213 131.76582
40.714542 100.90071 33.320972 32.117947 138.7277 21.05098 97.776245 203.54245
59.016914 47.16643 108.3981 22.399351 31.429644 24.20378 38.972244 99.6398
49.71513 114.289665 57.21287 30.557037 57.08277 26.745787 32.67251 43.85594
29.490725 76.40404 54.905624 44.34574 52.801067 20.399092 104.79727 116.77472
28.96643 85.88331 39.012974 110.22867 46.158314 33.14972 26.932964 24.109287
00000000: 451a 1c43 6a1e 2c42 ff8b 2b42 77fa 2e43
00000010: de26 0843 01cf d442 e032 cb42 f79c 1e43
00000020: b800 c242 dcde 1b42 91a6 3342 a988 da42
00000030: 270e 0f43 797f eb42 4364 6842 1e58 0942
00000040: 62a4 b942 ed50 9b42 62f9 bd42 12bb ce42
00000050: 1a67 3442 7ff4 e842 a7c3 8f42 0dc4 0343
00000060: b1db 2242 2acd c942 ad48 0542 c778 0042
00000070: 4bba 0a43 6868 a841 708d c342 de8a 4b43
00000080: 5211 6c42 6daa 3c42 d4cb d842 df31 b341
00000090: e96f fb41 57a1 c141 94e3 1b42 9447 c742
000000a0: 4bdc 4642 4f94 e442 fbd9 6442 d074 f441
000000b0: c254 6442 5ff7 d541 a6b0 0242 7c6c 2f42
000000c0: 01ed eb41 dece 9842 5c9f 5b42 0a62 3142
000000d0: 4b34 5342 5731 a341 3498 d142 a88c e942
000000e0: 40bb e741 41c4 ab42 490d 1c42 1475 dc42
000000f0: 1da2 3842 5099 0442 b676 d741 d2df c041

fc1.0.weight f4 [128, 128]
0.029189391 0.026633747 0.086957105 -0.02764403 0.023450747 0.036998816 0.07249299 0.09277269
-0.060513947 0.059026334 0.04323179 -0.042571466 0.0085159615 0.0823618 -0.049162228 -0.039358497
0.088759154 0.059187815 0.06522162 0.057967562 0.061589677 0.09650317 -0.07486172 0.038557798
0.067213856 -0.018405342 0.015679363 -0.055015523 0.07969899 -0.048703864 0.015002371 0.066395454
-0.06666268 -0.04161877 -0.008266193 0.07668481 0.09368 0.10039701 -0.06301108 0.03719283
-0.027495537 0.044834923 0.08694366 -0.031985566 0.06261758 -0.028402304 0.032100204 0.09778368
0.0871933 -0.03811068 -0.0071711866 -0.0041117384 -0.072077006 0.0011638078 0.03284817 0.021226538
0.054687947 0.004903182 0.09697378 -0.06489397 -0.046858132 -0.04845617 0.013878985 -0.036954336
-0.042141493 0.032904726 0.09429668 -0.04490621 -0.0128186755 0.043012798 0.07455989 0.08234885
-0.10679409 -0.009696636 0.021323416 0.08730525 0.07513046 -0.025833238 0.0034159233 0.038079582
0.07725303 0.029192826 -0.0892943 -0.0546519 0.020637441 -0.030489685 -0.05656074 0.039216496
0.031004427 -0.020565446 -0.053020462 0.004086186 -0.082127064 -0.024927013 0.008348324 0.04300548
-0.028796326 0.061503533 0.0043545836 -0.06465082 -0.0381559 0.10310638 0.020882834 -0.019708138
-0.071933426 0.071951956 0.026229579 -0.044416714 -0.04569537 0.05874851 -0.06500264 0.01727243
0.08761137 0.045218606 0.07750342 0.0007426603 -0.025465053 0.027998783 0.08574344 0.09073243
-0.017743643 0.055538174 0.030279646 0.033146515 -0.07883344 0.0044282344 0.004925628 -0.011955691
0.093994424 0.07011616 0.08007357 -0.021472882 -0.014486402 0.040654078 0.056037378 0.10744836
-0.03787728 -0.043839075 -0.0034523965 -0.026057 0.055368476 0.05959609 0.10237111 0.06360858
-0.044490747 -0.031933036 0.048610333 -0.045082383 -0.019204061 -0.008911363 -0.018172286 0.030523343
-0.058001272 -0.046455093 -0.03473327 0.0034550077 0.06794198 -0.028318714 -0.00051667204 0.00906301
-0.038430613 0.10039863 0.017035438 -0.044954404 -0.0636044 -0.019666461 0.061484013 -0.050228827
-0.099418804 0.021806283 0.08334959 -0.032790843 -0.008262479 0.049431965 -0.0047807605 0.019724542
0.045661237 0.06507579 0.049464446 0.024713153 -0.034981884 -0.02263779 0.0018097769 -0.06322797
0.05831019 0.01007119 -0.06695011 0.058676697 -0.037607018 0.09895241 -0.049248382 0.10469265
0.038330216 0.028865842 -0.014330427 0.10426566 -0.04644319 0.05809783 -0.06144186 -0.061938394
0.010231983 0.08532733 -0.012288978 0.064824134 0.06788204 0.047837574 0.02993826 -0.014820846
0.09831948 0.11046915 0.0029867964 0.114098325 0.09449455 -0.053710975 0.10366497 0.082296446
-0.00032767284 0.034199774 -0.003307196 0.105569534 0.047350954 -0.00060238125 0.08689205 0.02214636
0.009185835 -0.0077273105 0.07433419 -0.061004125 0.112760745 0.070259124 0.019508116 0.033397254
0.010772902 -0.016708024 -0.011500059 -0.053951293 -0.07303309 0.09222448 0.05579368 -0.06471986
0.10446367 -0.012303729 0.020568306 -0.01638772 -0.047587816 -0.048501946 -0.008551595 0.111116044
-0.0003777214 -0.060787193 -0.12153478 -0.028171813 0.063368134 0.029956792 -0.04990022 -0.07235185
00000000: 971e ef3c 042f da3c 9116 b23d bc75 e2bc
00000010: c81b c03c 128c 173d 3477 943d 9cff bd3d
00000020: 79dd 77bd 99c5 713d d113 313d 6b5f 2ebd
00000030: 8886 0b3c 4ead a83d 555e 49bd 6036 21bd
00000040: 5cc7 b53d ec6e 723d ea92 853d 656f 6d3d
00000050: 7545 7c3d 74a3 c53d 1a51 99bd c8ee 1d3d
00000060: 6ba7 893d cdc6 96bc 0272 803c f557 61bd
00000070: 3939 a33d b47d 47bd 81cc 753c 57fa 873d
00000080: 7186 88bd 7278 2abd ed6e 07bc ed0c 9d3d
00000090: 4ddb bf3d f39c cd3d f40b 81bd 8257 183d
000000a0: 523e e1bc d3a4 373d 850f b23d 4c03 03bd
000000b0: a53d 803d f3ab e8bc 817b 033d cf42 c83d
000000c0: 6792 b23d f219 1cbd 46fc eabb c3bb 86bb
000000d0: 1c9d 93bd e98a 983a cd8b 063d 47e3 ad3c
000000e0: 7800 603d dfaa a03b 309a c63d 21e7 84bd
000000f0: 50ee 3fbd fa79 46bd af64 633c 6e5d 17bd
00000100: 8f9c 2cbd 1bc7 063d 9e1e c13d 93ef 37bd
00000110: 6c05 52bc 302e 303d dbb2 983d 84a6 a83d
00000120: dcb6 dabd a4de 1ebc 72ae ae3c 18cd b23d
00000130: 00de 993d 3aa0 d3bc afdd 5f3b 56f9 1b3d
00000140: d636 9e3d cb25 ef3c eedf b6bd acda 5fbd
00000150: da0f a93c 81c5 f9bc 3cac 67bd 7aa1 203d
00000160: fffc fd3c de78 a8bc fc2b 59bd 6ae5 853b
00000170: 3c32 a8bd bc33 ccbc 69c7 083c 8426 303d
00000180: 46e6 ebbc 21eb 7b3d e5b0 8e3b a667 84bd
00000190: 5c49 1cbd 7029 d33d 7a12 ab3c f672 a1bc
000001a0: d551 93bd 8c5b 933d 6adf d63c 4dee 35bd
000001b0: 112b 3bbd 47a2 703d 1b20 85bd e97e 8d3c
000001c0: 976d b33d 2537 393d 1dba 9e3d 17af 423a
000001d0: 169c d0bc b45d e53c 429a af3d edd1 b93d
000001e0: 1e5b 91bc ff7b 633d 050d f83c a4c4 073d
000001f0: 6d73 a1bd b91a 913b 2a67 a13b cde1 43bc
00000200: 2680 c03d 1099 8f3d 9dfd a33d e6e7 afbc
00000210: 6058 6dbc e484 263d 7387 653d e30d dc3d
00000220: 3525 1bbd 9a90 33bd 9a41 62bb 7d75 d5bc
00000230: 0eca 623d 081b 743d f2a7 d13d 3745 823d
00000240: ee3b 36bd 37cc 02bd a11b 473d 4ea8 38bd
00000250: d651 9dbc f700 12bc 0cde 94bc 170c fa3c
00000260: be92 6dbd b247 3ebd 7944 0ebd 696d 623b
00000270: 2a25 8b3d a6fc e7bc 4671 07ba 057d 143c
00000280: 6b69 1dbd cc9d cd3d e78d 8b3c 1c22 38bd
00000290: 0643 82bd 8f1b a1bc a9d6 7b3d bebc 4dbd
000002a0: 169c cbbd 17a3 b23c 31b3 aa3d b14f 06bd
000002b0: 595f 07bc 2c79 4a3d eda7 9cbb 5d95 a13c
000002c0: 4707 3b3d 7546 853d 3b9b 4a3d 3d73 ca3c
000002d0: 2a49 0fbd e372 b9bc 0936 ed3a aa7d 81bd
000002e0: aad6 6e3d a201 253c 241d 89bd fa56 703d
000002f0: d109 1abd 90a7 ca3d acb8 49bd 1a69 d63d
00000300: 2500 1d3d 0f78 ec3c 2bca 6abc 3c89 d53d
00000310: 373b 3ebd fdf7 6d3d 76aa 7bbd 1db3 7dbd
00000320: 0ca4 273c 18c0 ae3d b657 49bc 84c2 843d
00000330: bd05 8b3d 55f1 433d 1541 f53c 22d3 72bc
00000340: b95b c93d a63d e23d 21be 433b 62ac e93d
00000350: 5c86 c13d 0a00 5cbd 4d4e d43d 0a8b a83d
00000360: 81cb abb9 1015 0c3d 8bbd 58bb d734 d83d
00000370: 13f3 413d 1fe9 1dba 76f4 b13d 486c b53c
00000380: 2f80 163c 6135 fdbb 863c 983d 76df 79bd
00000390: 1bef e63d 04e4 8f3d 7ccf 9f3c 8fcb 083d
000003a0: d380 303c 44df 88bc be6a 3cbc 08fc 5cbd
000003b0: 5f92 95bd 30e0 bc3d ea87 643d d98b 84bd
000003c0: 0cf1 d53d 9495 49bc dd7e a83c 8a3f 86bc
000003d0: 71eb 42bd faa9 46bd fd1b 0cbc cf90 e33d
000003e0: e808 c6b9 fefb 78bd 3ae7 f8bd 93c8 e6bc
000003f0: 27c7 813d f267 f53c 2c64 4cbd 352d 94bd

fc1.0.bias f4 [128]
-0.011208051 -0.012627188 0.03998839 0.1345664 0.025653258 0.14412323 0.13116063 -0.06795018
0.141805 0.069170445 0.10886815 -0.09289167 -0.077657655 -0.10013972 0.046442192 0.044379372
0.13768242 -0.0038960972 0.019092547 0.014274342 0.045649502 -0.03713389 0.05116986 0.13957354
-0.13979788 -0.092844754 0.09965985 -0.13362023 0.103569776 -0.030167313 -0.023003874 -0.022819737
0.12511277 -0.05992737 0.08131216 -0.08474637 0.054499213 -0.0734877 0.09208864 0.0971072
0.08195311 -0.1292876 -0.012268686 -0.073121995 0.108590595 -0.08559873 0.024216646 0.014533049
0.12276588 0.108138785 0.10579495 -0.08203369 0.085732564 -0.13171458 -0.07667562 0.13816753
0.04382181 -0.11289048 0.08822681 0.07762785 0.10424789 -0.10539364 -0.026943441 -0.010056707
0.014807744 0.11678467 -0.020664888 0.12525782 0.11653262 -0.109106235 -0.083014145 0.11570257
-0.07905145 -0.062202282 -0.061969817 -0.07127706 0.13761522 0.011820087 -0.14733988 -0.0105080865
-0.050823197 -0.0410396 0.006127306 0.14262767 -0.15659635 0.04222892 0.1294772 -0.01560374
0.038657866 -0.13626444 0.12723614 0.014532285 0.07335459 -0.080343656 0.11727811 0.07262976
0.11107015 -0.08633608 0.07819664 0.010268908 -0.11522067 0.07276748 0.030424798 0.13375323
0.03125474 0.01985284 -0.07638682 -0.0114340205 -0.06542194 -0.03905405 0.14545079 -0.012338386
0.048405115 0.04821095 0.11506146 0.03795944 0.098876186 0.13972223 -0.07227655 -0.057729278
0.026296385 0.027487008 0.0060889977 -0.005421763 -0.044914827 0.011010997 -0.12637085 0.15385464
00000000: f9a1 37bc 44e2 4ebc deca 233d c6cb 093e
00000010: c826 d23c 0a95 133e f94e 063e 7729 8bbd
00000020: 5435 113e 3ca9 8d3d 44f6 de3d fd3d bebd
00000030: fa0a 9fbd 0e16 cdbd 2b3a 3e3d 25c7 353d
00000040: 9ffc 0c3e aa55 7fbb f967 9c3c eede 693c
00000050: f9fa 3a3d b519 18bd 7d97 513d 5eec 0e3e
00000060: 2d27 0fbe 6425 bebd 771a cc3d bed3 08be
00000070: 641c d43d 7121 f7bc 9f72 bcbc 75f0 babc
00000080: 901d 003e 6776 75bd fd86 a63d 818f adbd
00000090: 913a 5f3d b880 96bd f898 bc3d 24e0 c63d
000000a0: 08d7 a73d f863 04be 9902 49bc fcc0 95bd
000000b0: bf64 de3d 634e afbd fd61 c63c 071c 6e3c
000000c0: ad6c fb3d de77 dd3d 06ab d83d 4701 a8bd
000000d0: 8e94 af3d 30e0 06be 1c08 9dbd ca7b 0d3e
000000e0: 807e 333d 2033 e7bd 42b0 b43d 5afb 9e3d
000000f0: eb7f d53d 9fd8 d7bd 7eb8 dcbc e3c4 24bc
00000100: 2e9c 723c cd2c ef3d 6949 a9bc 9643 003e
00000110: a7a8 ee3d 1773 dfbd 5203 aabd 78f5 ec3d
00000120: bae5 a1bd d2c7 7ebd 10d4 7dbd b5f9 91bd
00000130: 01eb 0c3e 0aa9 413c 44e0 16be 1c2a 2cbc
00000140: fc2b 50bd 2419 28bd 91c7 c83b fd0c 123e
00000150: cb5a 20be 3bf8 2c3d ac95 043e d4a6 7fbc
00000160: b657 1e3d e888 0bbe 314a 023e d218 6e3c
00000170: ee3a 963d 378b a4bd 812f f03d e9be 943d
00000180: bf78 e33d f9d0 b0bd 8f25 a03d ec3e 283c
00000190: d1f8 ebbd 1e07 953d 6d3d f93c 9bf6 083e
000001a0: f804 003d 6ca2 a23c b170 9cbd c255 3bbc
000001b0: f0fb 85bd 24f7 1fbd 0df1 143e f126 4abc
000001c0: 7144 463d d878 453d 58a5 eb3d 5c7b 1b3d
000001d0: 997f ca3d 5813 0f3e ba05 94bd 8975 6cbd
000001e0: 846b d73c 6f2c e13c 3786 c73b 0ba9 b1bb
000001f0: 9cf8 37bd 7867 343c 5c67 01be 128c 1d3e

fc1.3.weight f4 [2, 128]
-0.05781274 -0.07496933 0.15481661 0.09956596 -0.054844197 0.11904873 0.14723563 -0.12296242
0.0986692 0.088663705 0.120416276 -0.105743825 -0.07794658 -0.08303324 0.085777834 0.044706568
0.11772764 -0.033939373 -0.03367058 0.038548548 0.101738885 -0.04072394 0.07510943 0.10923954
-0.14259338 -0.044296656 0.10954203 -0.10869083 0.09256343 -0.05811808 -0.12400094 -0.022861134
0.09910427 -0.09316994 0.11415239 0.02329395 0.05026861 -0.033458434 0.04421101 0.0019554012
0.0168167 -0.041308444 0.060723647 -0.07409072 0.116475046 -0.007951894 -0.099188305 -0.07436121
0.06967607 0.087228194 0.0999858 -0.029706182 0.102793746 -0.04304412 -0.13845256 0.09380655
0.11915525 -0.08820599 0.12676175 0.09538053 0.17282516 -0.11209935 0.0785013 -0.09481482
0.026921347 0.13096613 -0.0047747255 0.056164823 0.078951865 -0.061933614 -0.14513105 0.12871961
-0.06365933 -0.10766618 0.0481599 -0.12407592 0.14048399 -0.09535953 -0.02423859 0.098915584
0.044108827 -0.09707923 0.016277181 0.09959339 -0.06463179 -0.09864235 0.1469272 -0.068372376
0.025633696 -0.08370779 0.07351425 -0.07539173 0.056962214 -0.1297927 0.0065807 0.12642242
0.12687042 -0.08672759 0.060496144 -0.067653015 -0.11023081 0.12827937 0.06772186 0.12754147
-0.039361417 -0.11857837 -0.12695447 -0.008802006 -0.011205811 -0.03189007 0.11136574 -0.09702215
0.10590296 0.04180671 0.04008008 -0.046833936 0.059582468 0.14843476 -0.051335704 -0.08971272
-0.056012314 0.07771244 0.016681029 0.090997994 0.057670258 -0.0020641182 -0.044244327 0.031832915
0.090540245 0.12688264 -0.00045260118 -0.11462397 0.103088684 -0.13094959 -0.13241169 0.10495157
-0.07673257 -0.08467145 -0.03996348 0.12581922 -0.016234366 0.1336684 -0.115179025 -0.008330908
-0.01251288 -0.057830583 0.026681531 0.04828367 -0.08384289 0.052793384 0.059857503 -0.008701152
0.079236954 0.054578125 -0.07989138 -0.020602224 0.05407307 0.00057866797 0.080896154 0.012049009
-0.08445262 0.0483911 0.00092596124 0.09216546 -0.15484539 0.017866123 -0.06920144 -0.08684859
-0.092820995 0.12494749 0.043982323 0.05033327 -0.10117208 0.006584962 0.10524386 0.03147257
-0.039514437 -0.10141789 -0.057928525 -0.00028684898 -0.08371138 0.107566394 0.07920972 -0.04110939
-0.11726695 0.04750753 -0.1379876 -0.12918727 -0.11625381 0.14527024 -0.009399732 0.048762895
-0.049066927 -0.04895488 0.037196815 -0.10632278 -0.008946138 0.014641072 0.100941084 0.0032625732
0.083076455 0.12753402 0.083385356 0.031587187 -0.08554649 0.08498689 0.01527539 -0.04882275
0.10127913 -0.04684384 0.03719306 -0.10463985 0.016114827 0.050180443 -0.10373229 0.012061413
-0.038753748 0.008892828 -0.10283461 -0.0102596395 0.0014291786 0.04896455 -0.10435474 -0.11550509
-0.13008706 0.051687557 -0.07610393 -0.06453462 0.014226383 -0.083401255 -0.111394644 -0.06434605
0.05344475 0.03583543 0.10709714 0.058893386 0.07178847 -0.019937713 -0.037707444 0.0106018735
-0.11470559 -0.10673074 -0.13786706 0.041466054 -0.11727189 -0.07393288 0.02804814 -0.015064832
-0.0021595024 -0.07997231 0.08678523 -0.13827242 -0.015910769 -0.06384541 0.043877434 -0.089463875
00000000: 0dcd 6cbd 8589 99bd 3f88 1e3e 3de9 cb3d
00000010: 4fa4 60bd d2cf f33d f0c4 163e b9d3 fbbd
00000020: 1413 ca3d 5195 b53d cf9c f63d 3890 d8bd
00000030: 75a2 9fbd 550d aabd 4aac af3d 3c1e 373d
00000040: 301b f13d 0304 0bbd 29ea 09bd 15e5 1d3d
00000050: 7a5c d03d 25ce 26bd f9d2 993d fbb8 df3d
00000060: 0004 12be 6970 35bd 9257 e03d 4c99 debd
00000070: e591 bd3d 390d 6ebd 34f4 fdbd 4647 bbbc
00000080: 2ef7 ca3d e2cf bebd bac8 e93d f4d2 be3c
00000090: 75e6 4d3d b60b 09bd 9b16 353d 3026 003b
000000a0: 2dc3 893c 0b33 29bd 5cb9 783d e0bc 97bd
000000b0: 788a ee3d a948 02bc 3d23 cbbd b14a 98bd
000000c0: 54b2 8e3d b2a4 b23d 5bc5 cc3d 615a f3bc
000000d0: 8785 d23d 084f 30bd 82c6 0dbe a61d c03d
000000e0: ab07 f43d 58a5 b4bd d5cd 013e de56 c33d
000000f0: 14f9 303e 5894 e5bd 4ac5 a03d 462e c2bd
00000100: 288a dc3c fc1b 063e 4d75 9cbb 160d 663d
00000110: 84b1 a13d 1aae 7dbd 3c9d 14be 13cf 033e
00000120: d35f 82bd 1680 dcbd 5143 453d 841b febd
00000130: 09db 0f3e db4b c3bd 0290 c6bc 4194 ca3d
00000140: 75ab 343d 7ad1 c6bd b957 853c 9ff7 cb3d
00000150: ac5d 84bd 0005 cabd 1574 163e d106 8cbd
00000160: c2fd d13c fd6e abbd a48e 963d fb66 9abd
00000170: 3651 693d 61e8 04be eaa2 d73b e174 013e
00000180: 52ea 013e 3c9e b1bd ceca 773d aa8d 8abd
00000190: b1c0 e1bd ab5b 033e c2b1 8a3d 3b9a 023e
000001a0: 7039 21bd 37d9 f2bd 5a00 02be 4a36 10bc
000001b0: 9498 37bc 299f 02bd b913 e43d 8db3 c6bd
000001c0: a7e3 d83d 833d 2b3d 032b 243d f1d4 3fbd
000001d0: bf0c 743d 48ff 173e 6345 52bd 4dbb b7bd
000001e0: 2b6d 65bd b327 9f3d a7a6 883c 285d ba3d
000001f0: a637 6c3d 2846 07bb 8a39 35bd 3b63 023d
00000200: 2a6d b93d 86ed 013e 1a4b edb9 f9bf eabd
00000210: 2920 d33d a617 06be ee96 07be d9f0 d63d
00000220: f725 9dbd 3a68 adbd bfb0 23bd c1d6 003e
00000230: effd 84bc 5ee0 083e fbe2 ebbd 5c7e 08bc
00000240: d302 4dbc c3df 6cbd 3a93 da3c 19c5 453d
00000250: d2b5 abbd e03d 583d 242d 753d 478f 0ebc
00000260: fc46 a23d 508d 5f3d 189e a3bd ffc5 a8bc
00000270: b97b 5d3d c0b1 173a e2ac a53d 3569 453c
00000280: 7ff5 acbd bf35 463d 35bc 723a 3fc1 bc3d
00000290: ca8f 1ebe fa5b 923c 7cb9 8dbd acdd b1bd
000002a0: ef18 bebd 78e4 ff3d cf26 343d 422a 4e3d
000002b0: 4f33 cfbd aac6 d73b 188a d73d 62e9 003d
000002c0: e4d9 21bd 2fb4 cfbd 7646 6dbd 3864 96b9
000002d0: df70 abbd c54b dc3d b538 a23d 5262 28bd
000002e0: a829 f0bd 4197 423d 9f4c 0dbe ab49 04be
000002f0: 7a16 eebd b9c1 143e 5501 1abc 9abb 473d
00000300: 67fa 48bd ea84 48bd b05b 183d c2bf d9bd
00000310: d392 12bc 1be1 6f3c 33ba ce3d e5d0 553b
00000320: fd23 aa3d 4798 023e f1c5 aa3d 9161 013d
00000330: 0033 afbd 9b0d ae3d a145 7a3c 5dfa 47bd
00000340: 6f6b cf3d 54df 3fbd c057 183d 6b4d d6bd
00000350: 3e03 843c 028a 4d3d 9871 d4bd 3c9d 453c
00000360: 40bc 1ebd 39b3 113c f49a d2bd 0c18 28bc
00000370: 4753 bb3a 0d8f 483d f0b7 d5bd ef8d ecbd
00000380: 8b35 05be 55b6 533d 61dc 9bbd ba2a 84bd
00000390: c615 693c 47ce aabd e022 e4bd ddc7 83bd
000003a0: e2e8 5a3d 2cc8 123d bf55 db3d 313a 713d
000003b0: d505 933d 6a54 a3bc 1f73 1abd 7bb3 2d3c
000003c0: c4ea eabd a595 dabd 062d 0dbe 4fd8 293d
000003d0: 3f2c f0bd 1f6a 97bd 37c5 e53c 7cd2 76bc
000003e0: 7086 0dbb 86c8 a3bd 74bc b13d 4997 0dbe
000003f0: 4d57 82bc 62c1 82bd d3b8 333d d638 b7bd

fc1.3.bias f4 [2]
0.11606306 -0.07792389
00000000: 78b2 ed3d 8f96 9fbd

exp_avg f4 [64, 60, 3]
-3.5605975e-05 3.5512014e-05 -5.9990714e-05 -2.4228895e-05 3.727638e-05 -6.1396284e-05 -4.0201925e-05 4.261051e-05
-7.829638e-05 -7.081294e-05 4.441184e-05 -0.00012580918 -9.607458e-05 2.8567227e-05 -0.0001356915 -0.0001172148
4.4223936e-05 -0.00018872977 -0.00013536845 8.070084e-05 -0.00016265399 -8.4458574e-05 8.5278516e-05 -8.895395e-05
-0.000109978995 8.509176e-05 -0.000118350836 -9.9448844e-05 4.6633475e-05 -9.1055794e-05 -7.799232e-05 4.9623508e-05
-8.193744e-05 -7.844656e-05 1.7144858e-06 -7.5044765e-05 -8.273009e-05 2.7304879e-05 -7.9592646e-05 -6.549822e-05
7.921887e-05 -6.702335e-05 -6.375345e-05 0.00010515857 -7.2458846e-05 -4.3120875e-05 8.679302e-05 -6.4295775e-05
-4.969202e-05 6.190192e-05 -8.2302926e-05 -2.534281e-05 5.8006037e-05 -5.5039258e-05 -2.2125205e-05 5.136668e-05
-3.0558505e-05 -3.602409e-05 5.6873614e-05 -3.399939e-05 -5.243093e-05 7.243896e-05 -7.8848854e-05 -4.938023e-05
7.698163e-05 -6.787347e-05 -5.903217e-05 8.812164e-05 -7.5224314e-05 -3.8205995e-05 8.592613e-05 -2.6359216e-05
-1.5985039e-05 5.9192185e-05 2.7219783e-05 -3.5704667e-05 3.7582897e-05 1.4192583e-05 -2.2949249e-05 2.3496057e-05
3.2166376e-05 -3.11448e-05 1.6966273e-05 1.1796082e-05 -5.7361585e-06 2.4108149e-05 3.0251274e-05 2.9570415e-06
3.306614e-05 9.687166e-06 -6.4584106e-07 2.6532041e-05 -2.3719847e-05 -2.527e-05 5.865849e-06 -4.964212e-05
-3.278962e-05 -6.822107e-06 -6.573776e-05 -4.173556e-05 -1.4055488e-05 -8.0020014e-05 -3.3569737e-05 -9.8878745e-06
-7.659324e-05 -1.2545481e-05 1.0423652e-05 -5.6148976e-05 -7.544902e-06 2.5387493e-05 -4.1629428e-05 -7.7183695e-06
4.1537605e-05 -5.881931e-05 -2.3870065e-05 3.6331923e-05 -7.445959e-05 -2.8628026e-05 3.8913215e-05 -7.1314724e-05
-1.854513e-05 2.1281849e-05 -3.698926e-05 -2.2397648e-05 1.4123513e-05 -3.8684797e-05 -3.401167e-05 1.2360249e-06
-5.616307e-05 -2.9031004e-05 3.2023684e-06 -5.0133163e-05 -1.9352146e-05 -6.626908e-06 -2.3815403e-05 -9.547741e-06
9.459001e-06 -1.0628978e-05 -1.6156286e-05 -1.4018897e-07 -1.4468616e-05 -1.0440535e-05 -1.7888953e-05 2.8880463e-06
-1.7468257e-05 -2.3814968e-05 -1.3417577e-05 -2.607235e-05 -3.285962e-05 -6.720993e-05 -2.1324378e-05 -2.1623782e-05
-8.841621e-05 -3.8863095e-06 9.200088e-06 -6.80754e-05 3.9188662e-06 1.9636767e-05 -7.614193e-05 5.8304827e-06
3.3788332e-05 -6.986659e-05 -4.9445716e-06 3.6203328e-05 -6.182524e-05 -2.0116135e-05 2.926635e-05 -6.3099564e-05
-3.5561992e-05 2.1579233e-05 -7.449278e-05 -3.0317064e-05 1.5932861e-05 -5.018389e-05 -2.0320102e-05 9.811752e-06
-3.1795996e-06 -1.23387035e-05 2.8719582e-05 1.5436732e-05 -8.997756e-05 3.831379e-05 1.2542384e-05 -3.105612e-05
8.207954e-05 -2.316584e-05 -4.3207647e-06 4.936847e-05 -0.0002160132 -3.602805e-05 1.2943257e-05 -0.00032315956
-7.381155e-05 -2.2989796e-05 -0.0004083968 -0.00011077293 2.4553536e-05 -0.00037934075 -0.00014153736 7.617868e-05
-0.00022130039 -9.218164e-05 0.0002018478 -2.1737005e-06 -8.419568e-05 0.00013973114 2.7111419e-05 -8.361418e-05
7.911107e-05 -7.3317715e-05 -8.850073e-05 3.590133e-05 -9.889829e-05 -7.405549e-05 -0.00013640233 -0.00039753897
-6.66523e-05 -0.00018289675 -0.00039837178 -1.5126006e-05 -0.000119099546 -0.00016274097 3.2227712e-05 -0.00010793245
-0.00012047638 7.988852e-05 -4.7460402e-05 -0.00011190961 9.225618e-05 -3.2226628e-05 -0.00025898113 6.839396e-05
7.172612e-05 -0.00019393831 5.358017e-05 0.000108896136 -0.00014210463 4.5360313e-05 3.6707475e-05 -0.0003714618
3.725878e-05 -1.1739317e-05 -0.0003759882 8.513794e-06 3.088978e-05 -0.00038091934 -1.9640693e-05 6.393696e-05
-0.0002458575 -6.5328095e-05 0.00012412082 -2.6626918e-05 -4.368161e-05 0.00016961155 -3.0461177e-05 -9.9017016e-05
00000000: a057 15b8 bcf2 1438 8a9e 7bb8 283f cbb7
00000010: 3559 1c38 e1c1 80b8 7d9e 28b8 b0b8 3238
00000020: 0d33 a4b8 6881 94b8 da46 3a38 a5eb 03b9
00000030: a67b c9b8 a7a3 ef37 6948 0eb9 37d1 f5b8
00000040: 177d 3938 c3e5 45b9 b1f1 0db9 ef3d a938
00000050: 198e 2ab9 5a1f b1b8 8ed7 b238 ca8c bab8
00000060: 86a4 e6b8 4a73 b238 1f33 f8b8 318f d0b8
00000070: 5098 4338 35f5 beb8 cf8f a3b8 d622 5038
00000080: d4d5 abb8 ad83 a4b8 491d e635 5a61 9db8
00000090: 617f adb8 c80c e537 faea a6b8 175c 89b8
000000a0: 4f22 a638 e38e 8cb8 5fb3 85b8 9488 dc38
000000b0: 0cf5 97b8 b0dc 34b8 a604 b638 88d6 86b8
000000c0: 666c 50b8 57d1 8138 0c9a acb8 4597 d4b7
000000d0: 824b 7338 f4d9 66b8 8499 b9b7 8d72 5738
000000e0: f22b 00b8 9218 17b8 948b 6e38 919a 0eb8
000000f0: 48e9 5bb8 5fea 9738 a85b a5b8 9e1d 4fb8
00000100: 3371 a138 4b57 8eb8 4f99 77b8 f2cd b838
00000110: bfc1 9db8 603f 20b8 3d33 b438 fc1d ddb7
00000120: 9c17 86b7 2045 7838 0a56 e437 98c1 15b8
00000130: 54a2 1d38 ae1c 6e37 2383 c0b7 6619 c537
00000140: 62ea 0638 79a1 02b8 cb52 8e37 c9e7 4537
00000150: 3a79 c0b6 db3b ca37 1ec4 fd37 9671 4636
00000160: 7fb0 0a38 1086 2237 dc5d 2db5 2091 de37
00000170: fcf9 c6b7 e9fa d3b7 42d3 c436 d236 50b8
00000180: 9687 09b8 74e9 e4b6 b1dc 89b8 370d 2fb8
00000190: dccf 6bb7 6bd0 a7b8 3bcd 0cb8 19e4 25b7
000001a0: afa0 a0b8 6e7a 52b7 3fe1 2e37 8181 6bb8
000001b0: 372a fdb6 3af7 d437 429b 2eb8 257e 01b7
000001c0: aa38 2e38 c1b4 76b8 933c c8b7 1b63 1838
000001d0: 3027 9cb8 3826 f0b7 bf36 2338 cd8e 95b8
000001e0: 5d91 9bb7 6c86 b237 ea24 1bb8 95e2 bbb7
000001f0: 07f4 6c37 7c41 22b8 c1a7 0eb8 7ee5 a535
00000200: a390 6bb8 9b87 f3b7 45e8 5636 1346 52b8
00000210: 6b56 a2b7 b55c deb6 30c7 c7b7 3c2f 20b7
00000220: 1ab2 1e37 1d53 32b7 5c87 87b7 da86 16b4
00000230: 3cbe 72b7 c229 2fb7 3c10 96b7 42d0 4136
00000240: cc88 92b7 41c6 c7b7 0e1c 61b7 f2b5 dab7
00000250: c0d2 09b8 0ef3 8cb8 c1e1 b2b7 b864 b5b7
00000260: 176c b9b8 2567 82b6 145a 1a37 b4c3 8eb8
00000270: ce7e 8336 a3b9 a437 63ae 9fb8 77a3 c336
00000280: f2b7 0d38 5785 92b8 8ce9 a5b6 07d9 1738
00000290: 2ca8 81b8 12bf a8b7 0281 f537 5254 84b8
000002a0: 6628 15b8 0d05 b537 0239 9cb8 6651 feb7
000002b0: 8fa7 8537 8b7c 52b8 1675 aab7 279d 2437
000002c0: 1b61 55b6 5402 4fb7 d5ea f037 217e 8137
000002d0: 56b2 bcb8 1eb3 2038 216d 5237 4142 02b8
000002e0: 1e22 ac38 4354 c2b7 16fb 90b6 fe10 4f38
000002f0: 9a81 62b9 d31c 17b8 de26 5937 be6d a9b9
00000300: 46cb 9ab8 36da c0b7 171e d6b9 c44e e8b8
00000310: 51f8 cd37 41e2 c6b9 a569 14b9 1ec2 9f38
00000320: df0c 68b9 a451 c1b8 1ba7 5339 e4df 11b6
00000330: 3692 b0b8 cb84 1239 546d e337 055a afb8
00000340: 6fe8 a538 26c2 99b8 7899 b9b8 c294 1638
00000350: 9d67 cfb8 3d4e 9bb8 3907 0fb9 c76c d0b9
00000360: aec7 8bb8 f9c7 3fb9 8edc d0b9 b3c5 7db7
00000370: 15c5 f9b8 72a5 2ab9 3e2c 0738 cb59 e2b8
00000380: 44a8 fcb8 d389 a738 3810 47b8 04b1 eab8
00000390: a979 c138 142b 07b8 dcc7 87b9 ba6e 8f38
000003a0: ab6b 9638 eb5b 4bb9 45bb 6038 2b5f e438
000003b0: ec01 15b9 4441 3e38 5af6 1938 c2c0 c2b9
000003c0: 4f46 1c38 fcf3 44b7 4820 c5b9 77d6 0e37
000003d0: a68f 0138 21b6 c7b9 11c2 a4b7 e515 8638
000003e0: 6fe6 80b9 c100 89b8 6e26 0239 df5c dfb7
000003f0: c636 37b8 c1d9 3139 e186 ffb7 5ba7 cfb8

exp_avg_sq f4 [64, 60, 3]
3.0211496e-08 2.753321e-08 3.602858e-08 2.748483e-08 2.6848387e-08 4.182054e-08 2.1558414e-08 2.390136e-08
4.5863025e-08 2.0435893e-08 2.1982173e-08 5.0102894e-08 2.1749633e-08 2.1258193e-08 4.8209376e-08 2.7441732e-08
1.896361e-08 3.442294e-08 3.471083e-08 2.7357055e-08 2.7467916e-08 3.5747394e-08 3.3504026e-08 2.6661e-08
3.7753054e-08 3.379986e-08 2.7492009e-08 2.6030055e-08 2.4593966e-08 2.8234725e-08 1.7520446e-08 2.4145434e-08
2.8503658e-08 1.743211e-08 2.1609843e-08 2.6710708e-08 2.1055815e-08 1.4481827e-08 2.9410295e-08 2.7526346e-08
1.3860371e-08 2.9607715e-08 3.0272048e-08 1.9022266e-08 2.5673867e-08 3.5101497e-08 2.4884502e-08 1.9394019e-08
2.817489e-08 2.7483324e-08 1.7138461e-08 1.8946853e-08 2.5354913e-08 2.1698968e-08 1.40872745e-08 2.3335707e-08
3.1526238e-08 2.0624132e-08 2.0536149e-08 3.6771194e-08 2.7303777e-08 2.1212042e-08 3.387725e-08 3.1069735e-08
2.08995e-08 2.809626e-08 3.1505312e-08 2.2805574e-08 2.8677517e-08 2.7585777e-08 2.8837125e-08 2.6463729e-08
2.9448104e-08 3.3025902e-08 2.4475359e-08 2.644491e-08 3.544454e-08 2.3964615e-08 1.6062351e-08 3.130092e-08
2.5408553e-08 1.1763834e-08 2.132802e-08 1.790199e-08 1.3356682e-08 1.754492e-08 1.9081352e-08 1.91654e-08
1.5421248e-08 1.874614e-08 2.02976e-08 2.0198863e-08 2.7711653e-08 1.9955817e-08 2.484166e-08 3.3442788e-08
1.7726922e-08 2.2474868e-08 3.2215063e-08 1.50949e-08 1.7681712e-08 2.8232517e-08 1.9083162e-08 2.0534982e-08
2.5998396e-08 2.2352703e-08 2.474689e-08 2.0381574e-08 1.7728235e-08 2.1719742e-08 1.5166956e-08 1.5571883e-08
2.931567e-08 2.121571e-08 1.5890375e-08 3.222259e-08 2.6356725e-08 2.114159e-08 2.9531412e-08 3.0240198e-08
2.8840887e-08 2.453642e-08 2.585904e-08 2.5192294e-08 2.4734588e-08 2.2923704e-08 2.4960986e-08 3.1767772e-08
2.8609318e-08 1.857719e-08 3.252232e-08 3.2296295e-08 1.44900865e-08 2.6219409e-08 3.5724618e-08 2.0101558e-08
1.8776337e-08 4.679185e-08 2.31875e-08 1.906269e-08 4.6863068e-08 2.2172273e-08 2.3544418e-08 5.091231e-08
2.228114e-08 3.098967e-08 5.9779765e-08 2.010345e-08 3.177334e-08 6.771759e-08 1.7203691e-08 2.139546e-08
7.869336e-08 1.20279315e-08 2.0046043e-08 6.353967e-08 1.097205e-08 1.8013491e-08 6.17529e-08 1.0512989e-08
2.100744e-08 5.5050286e-08 1.1206694e-08 1.7588707e-08 3.3182616e-08 1.5942149e-08 1.909836e-08 2.8174929e-08
1.6987887e-08 1.983142e-08 3.4075555e-08 2.1239716e-08 2.1274404e-08 3.465752e-08 2.3600798e-08 2.2008527e-08
3.5053567e-08 2.1649974e-08 2.2422414e-08 3.3132153e-08 5.6658568e-08 5.86591e-08 1.8956621e-07 5.038714e-08
5.145785e-08 2.0840578e-07 4.592355e-08 3.925682e-08 1.9654945e-07 3.833222e-08 3.70919e-08 2.3657188e-07
3.3416928e-08 4.9326058e-08 2.3754369e-07 3.3486312e-08 4.4446995e-08 2.7419236e-07 4.5255263e-08 4.3201283e-08
2.629928e-07 6.490148e-08 5.6425396e-08 1.5909171e-07 7.8188755e-08 5.151313e-08 1.6044406e-07 6.430902e-08
4.4303764e-08 1.0580372e-07 4.905811e-08 2.3156511e-08 1.3279332e-07 4.0813823e-08 2.9331195e-08 1.8084395e-07
5.1825726e-08 3.7608732e-08 1.8625208e-07 6.0090336e-08 5.3991435e-08 1.9950441e-07 6.4514936e-08 8.1256026e-08
1.9856999e-07 7.8544915e-08 8.3361634e-08 2.0753875e-07 6.7033454e-08 7.403708e-08 1.6676846e-07 5.4990668e-08
5.6910057e-08 1.273725e-07 5.2626632e-08 4.9349328e-08 1.4010156e-07 5.5963344e-08 4.3652268e-08 2.1520648e-07
6.2389326e-08 4.67049e-08 2.5227297e-07 5.5328325e-08 5.389683e-08 2.8998082e-07 4.156464e-08 5.4211622e-08
2.6114105e-07 4.771087e-08 6.0336596e-08 2.2673224e-07 5.344458e-08 5.7910807e-08 1.7162613e-07 5.6273688e-08
00000000: e4c1 0133 2b82 ec32 d8bd 1a33 c817 ec32
00000010: 3aa0 e632 2c9e 3333 742f b932 a54f cd32
00000020: eefa 4433 018b af32 4fd3 bc32 b730 5733
00000030: f3d3 ba32 439b b632 c50e 4f33 02b9 eb32
00000040: 6be5 a232 6cd8 1333 f614 1533 cdfe ea32
00000050: 96f2 eb32 ad88 1933 11e6 0f33 2904 e532
00000060: ec25 2233 572b 1133 9127 ec32 b298 df32
00000070: b442 d332 d188 f232 de7f 9632 5f68 cf32
00000080: 35d8 f432 9ebd 9532 8ca0 b932 7871 e532
00000090: 3ade b432 c0cb 7832 eca1 fc32 1373 ec32
000000a0: 8e1e 6e32 0e54 fe32 7804 0233 6866 a332
000000b0: 6e89 dc32 81c2 1633 99c1 d532 e697 a632
000000c0: 3d05 f232 7814 ec32 e037 9332 92c0 a232
000000d0: 0bcc d932 8964 ba32 7d04 7232 c373 c832
000000e0: 7767 0733 f228 b132 7867 b032 5bee 1d33
000000f0: a489 ea32 c635 b632 6e80 1133 8971 0533
00000100: 7d86 b332 5458 f132 7550 0733 fde5 c332
00000110: 8756 f632 c4f5 ec32 82b5 f732 5b52 e332
00000120: 11f5 fc32 5dd8 0d33 e23d d232 f928 e332
00000130: af3b 1833 bfda cd32 7cf9 8932 ba6f 0633
00000140: 0042 da32 e419 4a32 d034 b732 e4c6 9932
00000150: 4f77 6532 b0b5 9632 56e8 a332 29a1 a432
00000160: af77 8432 3307 a132 e55a ae32 c581 ad32
00000170: 920a ee32 4e6b ab32 6363 d532 bca2 0f33
00000180: ea45 9832 c20e c132 d65c 0a33 09aa 8132
00000190: 7fe2 9732 f683 f232 51ec a332 e764 b032
000001a0: 1453 df32 1d02 c032 fd92 d432 8e13 af32
000001b0: cd48 9832 3892 ba32 7d48 8232 efc2 8532
000001c0: d7d1 fb32 d73d b632 4e7f 8832 1d65 0a33
000001d0: 0d67 e232 d99a b532 43ac fd32 73e1 0133
000001e0: c8bd f732 28c4 d232 a120 de32 7166 d832
000001f0: ef77 d432 c2e9 c432 ca69 d632 0971 0833
00000200: 8ec0 f532 ac93 9f32 abae 0b33 27b6 0a33
00000210: 13f0 7832 1739 e132 a26f 1933 cbab ac32
00000220: 9a49 a132 2ff8 4833 da2d c732 4cbf a332
00000230: 7d46 4933 5875 be32 b93e ca32 adaa 5a33
00000240: bf64 bf32 8119 0533 4660 8033 f4af ac32
00000250: 2877 0833 246c 9133 51c7 9332 1dc9 b732
00000260: 22fe a833 67a3 4e32 b731 ac32 4e73 8833
00000270: 967f 3c32 16bc 9a32 049d 8433 9d9c 3432
00000280: d973 b432 6e70 6c33 9087 4032 fa15 9732
00000290: ac84 0e33 28f1 8832 bd0d a432 5305 f232
000002a0: c2ec 9132 c159 aa32 785a 1233 a172 b632
000002b0: e9be b632 59da 1433 b4ba ca32 430d bd32
000002c0: ce8d 1633 ccf8 b932 699b c032 304d 0e33
000002d0: c158 7333 5df0 7b33 908b 4b34 3f69 5833
000002e0: 8102 5d33 25c6 5f34 7a3d 4533 549b 2833
000002f0: 1a0b 5334 b9a2 2433 fa4e 1f33 6204 7e34
00000300: 4d86 0f33 93da 5333 830f 7f34 97d2 0f33
00000310: fde5 3e33 b634 9334 b05e 4233 508c 3933
00000320: 7531 8d34 f75f 8b33 6158 7233 ccd2 2a34
00000330: b9e8 a733 493f 5d33 8746 2c34 421a 8a33
00000340: 8148 3e33 3636 e333 f6b3 5233 b5e9 c632
00000350: f395 0e34 464b 2f33 fbf3 fb32 022e 4234
00000360: fd96 5e33 3d87 2133 95fc 4734 030b 8133
00000370: 36e4 6733 5b37 5634 768b 8a33 f97e ae33
00000380: 8136 5534 86ac a833 8b04 b333 d1d7 5e34
00000390: 08f4 8f33 51fe 9e33 f710 3334 e12e 6c33
000003a0: 456d 7433 e3c3 0834 9807 6233 29f4 5333
000003b0: d36e 1634 595c 7033 2d7c 3b33 8213 6734
000003c0: e5fa 8533 9598 4833 2270 8734 23a2 6d33
000003d0: 317c 6733 a9ae 9b34 ce84 3233 4fd6 6833
000003e0: f432 8c34 a8ea 4c33 6592 8133 af73 7334
000003f0: f08a 6533 9bb9 7833 3b48 3834 93b1 7133

exp_avg f4 [64]
-6.100293e-13 1.7367173e-12 3.133506e-12 -1.6874057e-12 3.1252156e-10 9.660091e-13 -1.3207754e-10 -7.0853696e-12
-2.2702855e-12 -1.8761907e-11 -1.1952677e-11 -2.5566459e-11 8.7162725e-12 3.6590497e-10 -8.902734e-12 -2.2893869e-11
-2.4648857e-12 1.0157194e-11 -5.4840537e-12 -1.5005967e-12 1.7899439e-11 -2.8784642e-12 2.3713584e-10 1.2455351e-13
-7.205998e-12 -2.0790937e-11 -5.925437e-12 6.1039906e-12 6.646983e-12 -3.2677354e-11 -2.445087e-12 -3.278449e-10
-1.9999728e-11 2.9856781e-12 2.689336e-10 -6.272536e-12 -6.5030767e-12 2.3738693e-11 -5.107173e-12 5.318895e-12
1.9538008e-12 4.7238446e-12 -8.131684e-12 2.4861252e-12 2.6675769e-12 1.577661e-11 -9.41149e-12 -1.4445561e-13
-2.1739568e-11 -3.501977e-12 -1.7096661e-11 2.4526848e-12 6.39109e-12 1.0162924e-11 -3.1510695e-12 3.220808e-12
-8.798304e-12 2.7379715e-10 -1.5820387e-11 -5.8938097e-12 1.4071829e-12 -3.447058e-10 -4.882665e-12 1.287858e-11
00000000: 3eb5 2bab d66b f42b 3a80 5c2c 337b edab
00000010: 80cf ab2f 25f4 872b 8638 11af 564b f9ac
00000020: d4c1 1fac 0f08 a5ad 1246 52ad 8ce2 e0ad
00000030: 9a56 192d 8c28 c92f 599e 1cad 6960 c9ad
00000040: 6f73 2dac efaf 322d f7f3 c0ac b230 d3ab
00000050: f471 9d2d cd8d 4aac e75d 822f 1b3c 0c2a
00000060: dc89 fdac 07e1 b6ad 977b d0ac dcc3 d62c
00000070: b3de e92c 6eb7 0fae c60e 2cac 113c b4af
00000080: 62eb afad 3219 522c 0ad9 932f fbb1 dcac
00000090: 82ce e4ac c9ce d02d 53b1 b3ac 5924 bb2c
000000a0: 8c7c 092c 9c34 a62c d90d 0fad 0df2 2e2c
000000b0: cbb6 3b2c c4c5 8a2d 9591 25ad 7fa4 22aa
000000c0: 2839 bfad 026e 76ac 4262 96ad a497 2c2c
000000d0: d2dd e02c bec9 322d 9fbc 5dac eba4 622c
000000e0: 0ac8 1aad 8685 962f 5828 8bad b85e cfac
000000f0: 1b0b c62b 0781 bdaf 23cb abac f88f 622d

exp_avg_sq f4 [64]
8.062832e-20 3.7690058e-17 3.7177054e-17 1.3364528e-17 1.45834e-16 1.1488047e-18 1.159078e-16 5.1128146e-17
2.7914897e-18 1.0315023e-18 6.952285e-17 8.9028874e-17 1.6083569e-17 1.5008e-16 1.3102105e-17 2.1035143e-17
1.6892507e-17 9.914945e-18 1.7783038e-17 4.2053887e-18 5.2492716e-17 6.73013e-17 1.3675826e-16 1.277982e-18
7.680328e-17 1.355959e-19 2.5397267e-17 4.1911637e-17 1.424147e-18 3.6806824e-17 6.010056e-19 1.4770476e-16
8.5690776e-17 2.3878841e-17 1.4037608e-16 1.9680889e-19 1.0433675e-18 1.6713764e-20 2.8842382e-18 2.7095495e-17
1.8051937e-22 2.9661492e-17 4.840533e-18 1.7340125e-18 4.9588e-19 5.5478918e-17 5.90867e-17 8.101884e-19
8.461412e-18 5.2402693e-17 2.8891463e-17 7.655928e-20 7.5567376e-17 8.288323e-18 4.343374e-17 4.4282217e-18
5.76798e-17 1.4091226e-16 2.8122688e-17 6.6406933e-19 2.6709121e-17 1.4844145e-16 1.7754618e-17 1.2638473e-19
00000000: d460 be1f 91d0 2d24 eb72 2b24 3388 7623
00000010: 9922 2825 9d88 a921 f2a1 0525 76c9 6b24
00000020: c0f9 4d22 0e39 9821 0c4f a024 5f49 cd24
00000030: 4158 9423 cc07 2d25 f1b0 7123 d403 c223
00000040: 4ece 9b23 01e6 3623 0305 a423 c626 9b22
00000050: 7614 7224 ad2f 9b24 eaab 1d25 cb98 bc21
00000060: a818 b124 5915 2020 9a3f ea23 8748 4124
00000070: c12a d221 d4bd 2924 b362 3121 c04a 2a25
00000080: e896 c524 523e dc23 b5d7 2125 d659 6820
00000090: 4ff9 9921 67db 9d1e b8d1 5422 6ee9 f923
000000a0: 0a3c 5a1b 1cca 0824 8b95 b222 24e5 ff21
000000b0: a25b 1221 f2d9 7f24 a23e 8824 1b20 6f21
000000c0: e315 1c23 2eaa 7124 053d 0524 3fc5 b41f
000000d0: 1b3f ae24 80e4 1823 824d 4824 5f5f a322
000000e0: 2500 8524 f575 2225 69b1 0124 a9ff 4321
000000f0: 2159 f623 2f24 2b25 e8c1 a323 7135 1520

exp_avg f4 [64]
2.7484492e-05 6.5163484e-05 6.581449e-05 -1.1656482e-05 -2.2773167e-05 3.4089837e-05 0.000104034014 -2.3381508e-05
5.7016987e-05 6.124466e-05 5.294874e-05 4.607892e-05 5.361035e-05 9.337388e-05 0.00021361663 -0.00036127388
2.9791887e-05 8.881929e-05 8.964521e-05 2.6804793e-05 -0.0006155483 3.40738e-05 9.685951e-05 -4.293951e-05
8.501848e-05 3.6218462e-05 -0.00046202692 8.274341e-05 0.00014166678 -0.0004675769 7.282525e-05 3.6966583e-05
5.1371277e-05 7.282051e-05 5.651736e-05 -0.000178096 -0.0005191152 0.00026965354 3.7118756e-05 -5.3815504e-05
-9.944177e-06 -5.5701003e-05 5.9964554e-05 0.00014394149 -4.4899207e-05 -0.00039386447 -0.00018979909 3.9905943e-05
8.399711e-05 4.3509157e-05 4.9290415e-05 -7.5464804e-06 -2.759515e-07 -7.702272e-05 -2.4573019e-05 2.6745909e-05
4.3818753e-05 2.0946258e-05 -0.00017188047 3.1234813e-05 5.55253e-05 -0.00041383936 -0.00023272478 -7.74196e-05
00000000: 7f8e e637 61a8 8838 e305 8a38 3590 43b7
00000010: 0109 bfb7 affb 0e38 d62c da38 6823 c4b7
00000020: 8625 6f38 7a70 8038 4715 5e38 dd44 4138
00000030: addb 6038 b8d1 c338 47fe 5f39 5c69 bdb9
00000040: 97e9 f937 7e44 ba38 e8ff bb38 dbda e037
00000050: bf5c 21ba 77ea 0e38 0e21 cb38 f319 34b8
00000060: f34b b238 47e9 1738 343c f2b9 8886 ad38
00000070: 638c 1439 1c25 f5b9 c2b9 9838 910c 1b38
00000080: 7d77 5738 37b7 9838 0e0d 6d38 48bf 3ab9
00000090: 3b15 08ba 4960 8d39 f6af 1b38 f5b7 61b8
000000a0: ead5 26b7 7fa0 69b8 7382 7b38 00ef 1639
000000b0: 2852 3cb8 987f ceb9 ce04 47b9 ae60 2738
000000c0: 9b27 b038 9a7d 3638 2ebd 4e38 c637 fdb6
000000d0: 7c26 94b4 4287 a1b8 2822 ceb7 675c e037
000000e0: 07ca 3738 bfb5 af37 d03a 34b9 2002 0338
000000f0: d6e3 6838 94f8 d8b9 9507 74b9 555c a2b8
